Method/parameters/net_demo.pth (torch, 8216 bytes, 4 tensors)

0.weight f4 [64, 20]
000000 a5 34 5a 3e 67 ae 46 3e 53 12 b3 bc c4 3f 2a 3e
       0.21309145 0.19402467 -0.021859324 0.16625887
000010 7d b7 61 bd 39 9f ef ba 20 5f 03 be ae da 47 3e
       -0.05510663 -0.0018281705 -0.12829256 0.19517013
000020 08 f3 40 3e db 33 12 be 30 4d 02 3e 83 6d c5 3c
       0.18842709 -0.14277594 0.12724757 0.02410007
000030 2d 02 28 3e e0 d5 3f bd af 0c cf 3d 4e 99 1e 3c
       0.1640708 -0.046834826 0.10109841 0.009680105
000040 1e b8 58 3e 25 c1 87 3d 03 1c e4 bd 40 e0 bf 3c
       0.21163985 0.06628636 -0.11138155 0.02342236
000050 ae 02 77 bd ed 6c fd bc c8 5d a9 bb bf 8c 3f 3e
       -0.06030529 -0.030935729 -0.0051686503 0.18706034
000060 a2 cd 19 be 0b e9 25 bd 11 2d c4 bc 9d eb 24 be
       -0.15019849 -0.04050545 -0.02394727 -0.16105504
000070 13 00 85 3d 01 e6 43 be 3b f1 5a 3e 9d 5c 72 be
       0.06494155 -0.19130708 0.21381085 -0.23668142
000080 fa e6 79 3e c0 b0 37 3d 1a f5 6b bd 5a 6d 3a 3e
       0.24404517 0.044846296 -0.057606794 0.18205777
000090 12 2e 79 3d 8a 48 1d 3e cb 8f 20 bc bf b0 74 bd
       0.06083495 0.15359703 -0.009799908 -0.05973887
0000a0 f5 b7 19 3d 13 cf 6a bd 13 08 30 3d 3d 74 4c 3e
       0.03752895 -0.057326388 0.04297645 0.19966216
0000b0 2c 99 0e 3e 51 0c f1 bd 36 77 19 3e 4a 24 a2 3c
       0.13925618 -0.11769927 0.14986882 0.019792695
0000c0 4a 4f 88 3d d5 7b d4 bd 8e 13 62 be 6c 8f 81 bd
       0.06655748 -0.103751816 -0.22077772 -0.06326184
0000d0 b8 81 29 be fa bd 60 3e 2a 65 d2 3c 97 14 a4 3d
       -0.1655339 0.2194747 0.025683004 0.0801174
0000e0 01 d1 c3 3d 48 e6 08 bd 56 9f 38 3e de 3c fc bd
       0.09561349 -0.03342274 0.18029532 -0.12316297
0000f0 c4 ba 4d bd 4e 32 2e be 64 27 3d 3d 11 0f e5 bd
       -0.05022694 -0.17011377 0.046180144 -0.11184514
000100 a8 1f 01 3e e1 a9 91 bc 51 85 36 3e fe 01 61 be
       0.12609732 -0.0177812 0.17824294 -0.21973416
000110 e5 c7 e3 bd 99 ef 1f be 00 86 31 3e 64 31 aa 3c
       -0.11122111 -0.15618743 0.17336273 0.020775504
000120 56 57 70 3e 5b d1 15 be 29 61 8e be e9 aa 65 be
       0.23470816 -0.14630644 -0.27808502 -0.22428478
000130 2f dc 1b be d8 56 1d 3e eb cc 01 3e 61 7d 0f 3e
       -0.15220712 0.1536516 0.12675826 0.14012672
000140 eb 8a 22 be 9c 91 02 be 11 4b fd 3d 10 02 80 bd
       -0.15873305 -0.12750858 0.123678334 -0.062503934
000150 1f 8b 14 3e e3 f7 9e bd 61 3f 8f 3d 3c c7 6a be
       0.14506195 -0.077621244 0.069945104 -0.22927564
000160 78 53 f9 bd 3f 95 d1 3d d0 c2 8e 3d 2a cc ea bb
       -0.121741235 0.102335446 0.06970751 -0.0071654515
000170 4d fb ca 3d 42 30 06 3e 14 0c f3 bd c3 4f 95 bd
       0.09911213 0.13104346 -0.11867538 -0.07290604
000180 2e 37 94 3e d8 52 0c be 26 e1 16 be 1b 14 5e be
       0.2894835 -0.13703477 -0.14734325 -0.21687357
000190 29 0b 0c be 45 2c c1 3c c7 27 fc bb 98 58 26 be
       -0.13676132 0.02358068 -0.0076951715 -0.16244733
0001a0 47 03 6d bc 68 db d5 bd 51 4a 5b be 57 1e f0 bd
       -0.014466113 -0.10442239 -0.21415068 -0.11724537
0001b0 fe 2e 43 be 58 7c a9 bd 7e 5b 76 3e e0 11 18 3d
       -0.19060895 -0.0827567 0.24058339 0.037126422
0001c0 52 e7 83 3d 92 db 59 be f1 2a 2e be c6 98 b0 bd
       0.06440605 -0.21275166 -0.17008568 -0.08622889
0001d0 b1 4a 08 3d 02 fe 48 be 8d 5e 0b be 8c b3 cc bd
       0.033274356 -0.19628146 -0.13610287 -0.09995183
0001e0 85 86 0d bc 67 f2 9a bd f9 75 cf 3b f2 b5 1d be
       -0.008638029 -0.07565766 0.006331202 -0.15401438
0001f0 04 76 f2 bd 9c ee 1c be 18 29 81 bd d1 51 14 be
       -0.11838916 -0.15325397 -0.06306666 -0.14484335
000200 16 3b 23 3e ec 3a 44 bd 1c ac 26 3e b3 a1 7a 3d
       0.15940508 -0.047907755 0.16276592 0.061189365
000210 7f 5c 62 be bc 4b 21 3e f1 11 f9 bd 9f ed b7 bd
       -0.22105597 0.15751547 -0.12161625 -0.089808695
000220 5a 5a 5c be f3 2e 45 be cb e9 57 3d 70 76 68 bd
       -0.21518841 -0.19256191 0.052713197 -0.056753576
000230 c1 ea 8e 3d 91 f3 6e be 7c ca 49 3e 36 b8 75 be
       0.069783695 -0.233351 0.19706148 -0.23996052
000240 0d aa b2 bd 96 ef 3f 3d 66 f5 5d 3d f6 28 08 3e
       -0.08723841 0.046859346 0.05418911 0.13296875
000250 3b 54 57 3e 29 ff b7 bd 50 bb fb 3c 0b 45 24 bd
       0.21028225 -0.08984215 0.030728966 -0.040104907
000260 c9 0c dc ba d5 ee 44 be 28 09 64 3e ee 4d 35 be
       -0.0016788478 -0.19231732 0.22269118 -0.17705509
000270 b6 c1 bb 3d a6 ee a8 3d 77 3d ca 3d 64 8d 04 be
       0.09167807 0.082486436 0.09875005 -0.12944561
000280 48 40 3c 3e 0e 18 0a 3d 8a 39 31 bd bd 44 1a be
       0.18383896 0.033714347 -0.043267764 -0.15065284
000290 bb 85 fd 3d 48 99 ab 3c 8b e9 07 be e6 9e 1b 3e
       0.12379023 0.020947114 -0.13272683 0.15197334
0002a0 15 37 45 3d 7c 9a 59 be f7 10 d6 bd 3e 4a ee bc
       0.048148233 -0.21250337 -0.104524545 -0.029088136
0002b0 ee 75 b1 3d b2 2f 40 bd 77 8b 5e be eb c2 72 bd
       0.086650714 -0.046920486 -0.21732889 -0.05926792
0002c0 1f 95 13 be dd 95 22 3e b9 ca 32 3e 5b 3e 72 be
       -0.14412354 0.15877481 0.17460145 -0.23656599
0002d0 bb 64 3f 3d ea 30 e3 3d 80 6a d1 3d 8f c3 93 bd
       0.046726923 0.11093314 0.102253914 -0.07215034
0002e0 4c 71 01 3e ce af 44 3e 0f 1f c0 3d f0 52 81 39
       0.12640876 0.19207689 0.09380924 0.0002466659
0002f0 13 7a 86 3c 17 37 a6 3c d2 f3 81 bc 57 44 b8 bd
       0.016415631 0.02028994 -0.015863333 -0.0899741
000300 3f 7d 66 3e e5 51 68 3e 1d f1 d0 bc be 74 1a bd
       0.22508715 0.2268749 -0.025505597 -0.03770899
000310 f3 8e 87 bb c8 43 ca bc 16 27 de bb 57 83 a4 3c
       -0.004136914 -0.024690524 -0.0067795618 0.020082159
000320 fd e7 4f be 84 c3 41 bd 9e 2c f0 3d c0 1b c3 3d
       -0.2030334 -0.0473056 0.1172726 0.09526777
000330 eb 21 db 3c e5 a5 1f be 3d e8 e6 bd d8 26 33 be
       0.026749572 -0.15590627 -0.11274765 -0.17495286
000340 e1 51 dc bd 39 22 82 3d a6 64 13 3e 99 88 13 3e
       -0.10757805 0.06354184 0.14393863 0.14407577
000350 40 33 3b be 28 79 0c be 3d 8a e8 bc ad 9e 2d 3e
       -0.18281269 -0.13718092 -0.02838623 0.16955061
000360 60 f4 be 3c 75 b3 32 bb f5 4b 07 3e ec 19 1e bd
       0.023309886 -0.002726761 0.13212569 -0.03859894
000370 d7 5a 25 be ab da 4e 3e ff e0 47 be f9 2a 5a bd
       -0.16147934 0.20200603 -0.19519423 -0.05326364
000380 f2 29 85 be 3e eb b5 3d 48 8e 31 3e cb 6c 3f 3d
       -0.26008564 0.088827595 0.17339432 0.046734612
000390 da 00 3b be 1c ec 51 be 27 03 0a be 93 f7 16 3e
       -0.18262044 -0.20500225 -0.13477765 0.1474288
0003a0 16 d8 b7 3d a4 69 27 3e 04 79 26 3e ea af a3 3d
       0.08976762 0.16348892 0.16257101 0.07992537
0003b0 2c 0d 29 3d 78 6f 36 be 1d 84 14 be d9 e6 5b be
       0.041272327 -0.1781596 -0.14503522 -0.2147478
0003c0 5b 46 e8 3d 86 54 11 be f6 07 a5 3c 9c 1b 1c be
       0.11341544 -0.141924 0.020145398 -0.15244907
0003d0 ce 73 89 bd 1a ad 52 be cf 4a f6 bd ee 8f c6 3c
       -0.06711541 -0.20573846 -0.12025987 0.024238553
0003e0 8a c7 1d bd 26 bf 13 3e 27 89 bb bd d9 9a 36 be
       -0.038520373 0.14428386 -0.09157019 -0.17832507
0003f0 dc 35 1b bd d2 6e e7 bd 96 ff 4f bd 90 fb 61 be
       -0.03789316 -0.11300434 -0.050780855 -0.2206862

0.bias f4 [64]
000000 7d ab 19 be 41 b3 92 bd 2e 21 b8 bc ac 8d de bd
       -0.15006824 -0.07163096 -0.022476759 -0.108668655
000010 44 7a 02 be ac f8 fa 3d 5d e6 e6 3d 7e 54 3a be
       -0.12741953 0.12254462 0.11274407 -0.18196294
000020 4e 77 e7 3d f0 ad fd 3d e4 40 65 3e c8 dc 2f 3e
       0.113020524 0.123866916 0.22388035 0.17174065
000030 8f 36 5d 3e 97 b9 b9 bd 4c 0a 1f 3e 8f 4c 14 3e
       0.21602844 -0.090686016 0.15531272 0.1448233
000040 3b c8 53 be ff d4 3c be 83 bb 4a 3d ad 31 bb 3d
       -0.2068185 -0.18440627 0.04949523 0.09140334
000050 68 94 ce bd 7b b0 d6 bc 24 4b a5 bc 37 ff 4b 3d
       -0.100869 -0.0262072 -0.020177431 0.04980394
000060 b1 c5 91 bd 14 aa d2 3d 3f d6 05 3e 5d 4e 1f be
       -0.07117785 0.10286346 0.1307001 -0.15557237
000070 f9 9a 14 bc 91 19 22 3d f3 4d 5e 3d 50 b2 4c 3e
       -0.0090701515 0.039575163 0.054273557 0.19989896
000080 50 9f 32 3d 1e 74 07 bd 5a 40 42 3e 84 74 ae bd
       0.043608963 -0.033069722 0.1896986 -0.08518317
000090 66 96 cd bd bc 95 c6 3c a9 2f 10 be 1a 5c 68 3d
       -0.10038452 0.02424132 -0.14080681 0.05672846
0000a0 61 ea 0e be c3 6e 95 bc b1 28 45 3c 80 00 0e b6
       -0.13956596 -0.018241292 0.012033627 -2.115994e-06
0000b0 ce fd 0a be f7 10 69 be 42 ed 88 3d 42 b0 20 3e
       -0.13573381 -0.22760378 0.06685878 0.15692237
0000c0 70 89 24 be 1b cf d9 3d cf 3c 18 be 88 a4 4c bd
       -0.16068053 0.10635205 -0.14866947 -0.049961597
0000d0 32 ee 24 3e 30 5c 19 3e 94 df 17 be a2 68 09 3e
       0.1610649 0.14976573 -0.14831382 0.1341882
0000e0 3d ff d8 3d e6 85 43 3d e6 ac 63 3e b0 b4 a7 bd
       0.10595558 0.047735117 0.22233924 -0.0818876
0000f0 e4 8a 78 bd 1c b3 ee bd 34 dd df 3c f2 b2 07 3e
       -0.06067933 -0.11655256 0.027327158 0.13251856

2.weight f4 [3, 64]
000000 c9 69 84 bb 20 d6 5e bd fe 6b 38 bd 30 1c d4 3d
       -0.004040931 -0.054403424 -0.045024864 0.10356939
000010 90 3a 1f be 2c 35 f4 bc fa c0 aa ba 0e 2c 66 bd
       -0.15549684 -0.02981051 -0.0013027482 -0.056194358
000020 5b 12 9b 3d f9 42 0b bd fd a8 68 3d 08 ed 12 bd
       0.075718604 -0.033999417 0.056801785 -0.035870582
000030 20 2e d7 bd ab 44 d2 3d 00 31 c3 3c 9c ec 0c bd
       -0.105068445 0.102670036 0.023827076 -0.034405336
000040 0c 9c 08 be 0c 62 5b 3c 91 29 ae bd 75 bc 0c 3d
       -0.13340777 0.013390075 -0.08504022 0.034359414
000050 31 7f 47 3d 9a c7 14 be 69 5d 37 bd 89 a9 c9 bd
       0.048705284 -0.14529267 -0.044766817 -0.098467894
000060 02 9e 1f 3e 26 20 b0 3d 88 4e 2a 3c 73 be 1c 3e
       0.15587619 0.08599882 0.0103947 0.15307026
000070 70 38 95 bc 27 7d 06 be 62 bc 88 3d 91 5c 3f 3d
       -0.018215388 -0.1313368 0.06676556 0.046719138
000080 25 79 ce 3d b1 7a 83 bc 3f 59 00 3e 1a f0 eb 3d
       0.100817 -0.016049715 0.12534045 0.11520405
000090 92 5f 8c 3d 66 c8 07 be 57 30 af 3d ee fc da bd
       0.06854166 -0.1326004 0.08554142 -0.10692774
0000a0 c7 f4 15 3e aa 09 64 3c fe 27 10 be b5 ec 8f 3d
       0.14644156 0.01391832 -0.14077756 0.0702757
0000b0 5f b0 c8 bd 73 ea 0d be 0a 51 52 bc fd 4c 51 3c
       -0.09799265 -0.13858967 -0.012836704 0.012774703
0000c0 33 f2 1f 3e f9 e3 88 bd 6d 70 eb 3d e4 83 bd 3c
       0.15619735 -0.06684107 0.11496053 0.02313418
0000d0 60 fb 69 3c 6f 05 45 3c d1 9c 8e bd 23 c6 7b bd
       0.014281124 0.012025221 -0.06963504 -0.061468255
0000e0 ad f7 5b bd 42 8d 2c be e0 9a 83 bd 30 48 2b 3d
       -0.053703 -0.1685076 -0.064260244 0.04181689
0000f0 e8 97 82 bd 87 5f 2d bd b1 4a 8d 3c e7 f0 0b 3d
       -0.0637663 -0.04232743 0.01724753 0.03416529
000100 8a 89 90 bd 0f 32 5e bd fe 52 21 bd e5 87 b7 3a
       -0.070574835 -0.05424696 -0.03938579 0.0014002292
000110 82 20 8d 3c 75 16 58 bd 39 9c cf bc 92 75 84 3c
       0.017227415 -0.05275579 -0.025343047 0.016169343
000120 17 4b e4 bd 07 b5 8c bc 6c 19 e7 bb 24 db 9f 3d
       -0.11147135 -0.017176164 -0.007052591 0.0780547
000130 bb 16 90 3d 05 f9 72 3d 8e ec db bc b5 35 88 bd
       0.070355855 0.059319515 -0.026846197 -0.06650869
000140 f5 4a 83 3d 7c bf e7 bd 15 2a 98 bb fc 0b 88 bd
       0.06410781 -0.113158196 -0.0046436884 -0.06642911
000150 91 52 0b bd 90 12 db 3c 94 a8 5c 3d 69 38 9c 3d
       -0.03401429 0.02674225 0.053871706 0.07627947
000160 b5 ae 2a 3d 61 6f 02 3e 02 ca e6 bd e7 87 f1 3c
       0.04167052 0.127378 -0.11268999 0.029483749
000170 0f b9 9d 3d 78 75 ef 3d 70 e7 a1 bd 3e 14 73 3d
       0.07701313 0.11692327 -0.07905471 0.059345476
000180 fd 45 a5 bd 0b 39 cd 3c 68 d9 f4 bb e9 16 cc bd
       -0.0806999 0.025051614 -0.007472206 -0.09965307
000190 e3 b5 92 bd 13 ed 97 bd 5e e1 55 3d 28 aa 24 3d
       -0.071635984 -0.07418265 0.05221688 0.040201336
0001a0 8c b1 db bd fa e8 eb bc 7d 4d f5 3c d6 f4 07 be
       -0.10727224 -0.028797615 0.029944176 -0.13276991
0001b0 c5 e9 df 3d 27 f1 e2 3d f9 b1 47 bc 9f 82 c4 bd
       0.1093326 0.110811524 -0.012188428 -0.095952265
0001c0 01 30 54 3d 66 69 69 3d c6 43 f2 3d 43 20 80 bd
       0.051803593 0.05698528 0.11829333 -0.062561534
0001d0 97 33 c9 bd 2c f0 03 3d f5 e8 22 3d 3c 29 95 bd
       -0.09824293 0.032211468 0.039772946 -0.072832555
0001e0 df ca 0b bd 88 1c 32 bd 18 a3 d4 3d 31 e7 8f bd
       -0.03412902 -0.04348424 0.1038267 -0.07026518
0001f0 61 fb a3 3d 53 80 dd 3d 6b 35 5b bd 76 90 81 3c
       0.08006931 0.108154915 -0.05351774 0.015815955
000200 b5 b3 73 3b f4 4f f5 3d df 92 d0 bd 87 a6 ec 3c
       0.003718597 0.119781405 -0.101842634 0.028888
000210 62 ff 3e 3c f0 6c 53 3d ce a7 bf bc 17 b7 74 bd
       0.011657568 0.051617563 -0.023395445 -0.05974492
000220 a5 46 64 bc 40 8c 05 3e 1d ce 7b bd 55 86 af bd
       -0.013932859 0.13041782 -0.06147586 -0.08570544
000230 89 8b 37 bd cc ff c2 bc 12 24 80 3d 9c d6 76 3d
       -0.044810805 -0.023803614 0.0625688 0.06026326
000240 a2 38 da 3c cf 67 21 3e 6a 2f c7 bd 50 c7 2b bd
       0.026638333 0.15762256 -0.097258404 -0.041938126
000250 54 03 69 bd ad ac fe bd de b2 85 bd 4b 04 da bd
       -0.05688794 -0.12435279 -0.06528257 -0.1064535
000260 2c 7b 2d be f4 da 32 3d 44 b1 91 3d ef 53 98 3d
       -0.16941518 0.04366584 0.07113889 0.07437884
000270 87 ed b4 3d 93 f9 1b bd ff 41 93 bc d9 86 bd bd
       0.08834367 -0.03807981 -0.017975805 -0.09254236
000280 d3 89 99 3d c7 0c 0a be 02 10 60 3c f7 b8 c8 bc
       0.07496991 -0.13481437 0.013675692 -0.02450226
000290 7a ab 23 3c e3 35 42 3d 4f 07 22 bd a7 5e f8 3d
       0.009989614 0.04741467 -0.03955775 0.121274285
0002a0 d1 d7 db 3c b1 e0 30 3d 3e 28 53 3c 39 63 8b 3d
       0.026836308 0.043183032 0.012888012 0.068060346
0002b0 ba 23 e8 3d 61 33 ab 3d b8 b9 bb 3d 2d 38 d0 bc
       0.11334939 0.08359409 0.091662824 -0.025417412
0002c0 02 0f 0c 3c e6 de 3d 3d d6 c6 51 3c 5b 1d e5 3d
       0.0085485 0.04635515 0.012803754 0.1118724
0002d0 40 e3 10 3c 08 25 24 bc c6 65 55 bd 75 36 a6 3c
       0.008843243 -0.010018595 -0.05209901 0.020289639
0002e0 a9 d3 5f 3c a7 63 56 bc d9 bd cb 3d c5 5f a7 3d
       0.013661304 -0.013085282 0.0994832 0.081725635
0002f0 c7 0d b2 bd 68 3f 92 bc 13 57 91 3c 32 a2 ee bd
       -0.08694034 -0.0178525 0.017741716 -0.1165203

2.bias f4 [3]
000000 f1 6f 71 3c 77 7b fc bc 4e 9a 94 bd
       0.014736162 -0.030820591 -0.07255994
