Method/parameters/net_demo.pth (torch, 8344 bytes, 4 tensors)

backbone_network.0.weight f4 [64, 20]
0	0xbdd6bae7	-0.104848675
1	0x3dfa883b	0.12233015
2	0xbdc4d6d0	-0.09611285
3	0xbcd84dca	-0.02640428
4	0xbc874257	-0.016511125
5	0xbd3e04d0	-0.04639131
6	0xbd11c3ee	-0.035587244
7	0x3e5a2186	0.2130185
8	0xbdf0c10c	-0.11755571
9	0xbe04c411	-0.12965418
10	0x3db28a17	0.08717745
11	0xbd23e8ab	-0.04001681
12	0x3cc3dcd5	0.023909012
13	0xbe4dd135	-0.20099337
14	0xbe61cd09	-0.22050871
15	0x3de6947b	0.11258789
16	0xbd66c6cf	-0.056341942
17	0x3d39838b	0.045291465
18	0x3d807807	0.062728934
19	0xbd9687eb	-0.07350143
20	0xbe1a4250	-0.15064359
21	0xbd47f99d	-0.048822034
22	0x3e1e7996	0.15476069
23	0xbadd9acb	-0.0016907094
24	0xbe17dfb8	-0.14831436
25	0xbd8fdca4	-0.07024506
26	0x3e3f7dc8	0.18700325
27	0xbd03de50	-0.032194436
28	0xbe452ec6	-0.19256124
29	0xbe2027b0	-0.1564014
30	0x3e448a09	0.19193281
31	0x3d56ca43	0.052438986
32	0x3e2fe0d3	0.17175607
33	0xbe0577d4	-0.13033992
34	0x3d45a2f1	0.048251096
35	0x3c5c4e1a	0.013446355
36	0x3df5e706	0.12006955
37	0xbdcd1dcc	-0.10015449
38	0x3e1ba21e	0.15198562
39	0x3e0af08b	0.13568322
40	0xbdba1df6	-0.09087746
41	0xbd41e3c6	-0.047336362
42	0x3e2c3e25	0.16820581
43	0xbd4f2f86	-0.05058243
44	0xbcf50723	-0.02991063
45	0xbd90e63a	-0.07075162
46	0x3c243446	0.010022229
47	0xbd466d38	-0.048444003
48	0x3c8e214c	0.017349862
49	0xbd2d82e4	-0.042361155
50	0x3dae1411	0.08499921
51	0x3e03f120	0.1288495
52	0xbe2d05e2	-0.16896775
53	0x3e042201	0.12903596
54	0xbd636aca	-0.055521764
55	0x3cc601e3	0.024170822
56	0xbe12c125	-0.14331491
57	0xbe42ad39	-0.19011392
58	0xbe5c2144	-0.21497065
59	0x3d2bd009	0.041946445
60	0x3dfeb3fb	0.12436672
61	0x3b82a535	0.0039869794
62	0x3dbae041	0.09124804
63	0xbdbad9ac	-0.09123549
64	0xbdd5347e	-0.10410403
65	0xbdd48c84	-0.10378364
66	0xbd224548	-0.039616853
67	0xbd2c69e4	-0.042093173
68	0x3e32d1b7	0.17462812
69	0xbdb79817	-0.08964556
70	0xbe383f4e	-0.17992899
71	0xbe56524d	-0.20929833
72	0xbc7e4692	-0.015519755
73	0x3e233294	0.15937263
74	0xbe550f5e	-0.20806643
75	0x3d9ed3dd	0.077552535
76	0xbe1b99a9	-0.15195335
77	0xbdb9ae96	-0.09066503
78	0xbe2b1d7b	-0.16710465
79	0xbe3979a8	-0.18112814
80	0x3d307337	0.043078627
81	0x3d604572	0.05475373
82	0x3d179948	0.037011415
83	0xbd7c1823	-0.061546456
84	0xbd26e79c	-0.040748224
85	0x3df8ac33	0.121422194
86	0x3e230563	0.15920024
87	0xbdf3f0bf	-0.11911153
88	0xbe510a37	-0.20414053
89	0xbdee21e5	-0.116275586
90	0xbd9b30c8	-0.07577664
91	0xbd82c8ee	-0.063859805
92	0xbcf953b4	-0.03043542
93	0x3d5c1436	0.053730212
94	0xbcdb1178	-0.026741728
95	0xbe0ce96d	-0.1376092
96	0x3d10aaa8	0.035319
97	0x3cb42f3d	0.021995181
98	0xbe0fdc5f	-0.14048909
99	0x3e588668	0.21145022
100	0xbb181c70	-0.002321031
101	0xbc2fad87	-0.0107225245
102	0x3e3c09d3	0.18363123
103	0xbd4465b0	-0.04794854
104	0x3e2a0261	0.1660247
105	0x3d230706	0.03980162
106	0x3b038023	0.002006539
107	0x3d98e1fa	0.074649766
108	0x3d39ced4	0.045363262
109	0xbd5540e4	-0.052063838
110	0xbe541343	-0.20710473
111	0x3e102f0e	0.1408045
112	0xbddacbb3	-0.10683384
113	0xbdf64bbc	-0.12026164
114	0x3e214688	0.15749562
115	0xbe1d155f	-0.15340184
116	0x3bd5ae93	0.006521055
117	0x3dd8e554	0.10590616
118	0x3e16d08a	0.14727989
119	0x3e521e50	0.20519376
120	0xbe4d8a0e	-0.20072195
121	0x3abf0d46	0.0014576099
122	0xbe1ff519	-0.15620841
123	0x3ccee8ec	0.02525755
124	0xbe235d4e	-0.15953562
125	0x3c69a047	0.0142594045
126	0x3d88aa14	0.06673065
127	0x3d0f16d6	0.034933887
128	0xbdb00acd	-0.0859581
129	0x3e05dff8	0.13073719
130	0xbc9d250f	-0.01918271
131	0xbdae5797	-0.085128
132	0x3db0db60	0.086355925
133	0xbde7a8dc	-0.11311504
134	0xbe151c66	-0.14561614
135	0xbcf0887d	-0.029361958
136	0x3e0addc1	0.13561155
137	0xbe660724	-0.22463661
138	0x3ce502fb	0.027955523
139	0xbe62ddd4	-0.22154933
140	0xbcd735c2	-0.02627075
141	0x3d674128	0.056458622
142	0x3de2d4ea	0.110757664
143	0x3c734802	0.014848711
144	0x3d8ae1b0	0.06781328
145	0x3db246f6	0.08704941
146	0xbe4fe81f	-0.20303391
147	0x3e0f632f	0.1400268
148	0x3dd62a5b	0.104572974
149	0xbd4e26aa	-0.05032984
150	0xbd80754c	-0.062723726
151	0xbe46b25b	-0.19403975
152	0xbe0a700c	-0.13519305
153	0xbd9faf88	-0.07797152
154	0xbe514c3d	-0.20439239
155	0xbdd9acb3	-0.10628643
156	0xbe3fe1f8	-0.18738544
157	0xbe36449e	-0.17799613
158	0x3e7237be	0.23654076
159	0xbe551e83	-0.2081242
160	0x3d4fb5e0	0.05071056
161	0xbdfb6964	-0.12275961
162	0x3dcde221	0.10052896
163	0x3b952911	0.0045520146
164	0x3e2e5228	0.17023528
165	0x3d861aed	0.065481044
166	0xbe0af585	-0.13570221
167	0xbd79e86c	-0.06101267
168	0x3e06cdfb	0.13164513
169	0xbe1633d8	-0.14668214
170	0xbc80f33d	-0.015740985
171	0xbcdb476a	-0.026767451
172	0xbdeebb84	-0.116568595
173	0xbe3f935e	-0.1870856
174	0x3e12d1a7	0.14337789
175	0x3e5e38e2	0.21701387
176	0x3dd36906	0.10322766
177	0x3e3a217b	0.18176834
178	0xbdd1bdbd	-0.10241268
179	0xbd877518	-0.06614131
180	0xbdcf9220	-0.10135293
181	0xbcae76a2	-0.021296803
182	0x3c2ac69d	0.01042333
183	0x3e0f2415	0.13978608
184	0x3e6c131f	0.23054169
185	0x3e6ba826	0.23013362
186	0xbcd6c7aa	-0.026218254
187	0x3cd067d6	0.025440138
188	0x3e499bab	0.19688289
189	0x3da7ea6b	0.081990086
190	0xbd949927	-0.07255774
191	0x3dde2410	0.10846722
192	0xbd9ab367	-0.075537495
193	0x3e5b3990	0.21408677
194	0xbdec177f	-0.11527919
195	0x3e34e567	0.17665635
196	0x3d1d65eb	0.038427275
197	0x3d28342e	0.041065387
198	0x3d6d931b	0.05800162
199	0x3d1cd75f	0.03829133
200	0xbdcc908d	-0.099885084
201	0xbb94d2e3	-0.004541741
202	0xbe2c228d	-0.16810055
203	0x3da06fa9	0.078337975
204	0x3e5bd407	0.21467601
205	0xbddfc464	-0.109261304
206	0xbd3b9544	-0.045796648
207	0xbe296d14	-0.16545516
208	0x3cf31ee1	0.02967781
209	0xbe27b87a	-0.16378966
210	0x3e24ceb4	0.16094476
211	0xbd8395db	-0.06425067
212	0x3d818f7a	0.06326194
213	0xbd936722	-0.071974054
214	0x3e26d3c7	0.16291724
215	0xbe3c5422	-0.18391469
216	0x3e0baded	0.13640566
217	0xbc47b39f	-0.012188821
218	0xbd47bf09	-0.04876617
219	0xbdd12e35	-0.102138914
220	0x3e1d5e91	0.15368105
221	0xbd37f60d	-0.044912387
222	0xbbacff0f	-0.005279429
223	0xbd8cd8ae	-0.06877266
224	0x3e3e0a2a	0.18558565
225	0xbdadc4dc	-0.084848136
226	0xbdea2928	-0.11433631
227	0x3d9fbcf9	0.077997155
228	0x3d561e99	0.052275274
229	0xbe61b16e	-0.2204034
230	0xbcbba6ab	-0.022906622
231	0xbe76e47e	-0.241106
232	0xbe45096a	-0.19241872
233	0xbda261bc	-0.079287976
234	0x3e294755	0.16531117
235	0x3d8d8638	0.06910366
236	0x3e387d20	0.18016481
237	0x3e5add20	0.21373415
238	0x3e0b0e26	0.13579616
239	0xbe5802f2	-0.21094874
240	0x3df4440b	0.11927041
241	0x3db35d2a	0.08758004
242	0xbddf8e28	-0.10915786
243	0xbd6d0255	-0.057863552
244	0x3dcb29fa	0.09920116
245	0xbe2c5dd3	-0.16832666
246	0xbe04574a	-0.12923923
247	0x3d251bd9	0.04030976
248	0xbe661bc1	-0.22471525
249	0xbe5408be	-0.2070646
250	0x3da3e75e	0.08003114
251	0xbc4c8765	-0.012483452
252	0x3e0a0b02	0.13480762
253	0x3d8eead8	0.06978387
254	0x3d249cb6	0.040188514
255	0x3c42e3cc	0.011895131

backbone_network.0.bias f4 [64]
0	0x3e29c05f	0.1657729
1	0x3e009dc6	0.12560186
2	0xba70498b	-0.0009166232
3	0x3e536e89	0.20647635
4	0xbe133a55	-0.1437772
5	0x3e1a2f48	0.15057099
6	0x3e2295eb	0.15877502
7	0xbe1cd882	-0.15316966
8	0xbcb03a02	-0.021512035
9	0x3d95d737	0.073164396
10	0x3dd73c0a	0.105094984
11	0xbe139b4a	-0.14414707
12	0x3e13f7fc	0.14450067
13	0x3dbd483c	0.09242293
14	0x3d30e117	0.043183412
15	0xbe355ab2	-0.17710379
16	0xbe6a4f12	-0.22881725
17	0x3c669a03	0.014074805
18	0x3e616157	0.22009788
19	0xbd996329	-0.074896164
20	0x3e0cbfcc	0.1374504
21	0xbe01330b	-0.12617128
22	0x3daa2189	0.083071776
23	0xbe7bf0ed	-0.24603625
24	0x3e218bdc	0.15776008
25	0x3c9a14e6	0.018808793
26	0xbde895d0	-0.113566995
27	0xbe581326	-0.21101055
28	0x3dbf56cb	0.09342726
29	0x3d80df6d	0.06292615
30	0x3d081bd9	0.033229683
31	0x3e042912	0.12906292
32	0x3de2251d	0.11042235
33	0x3e4076bd	0.18795295
34	0xbd8b993d	-0.06816337
35	0xbe5d1e2d	-0.21593542
36	0xbda34b44	-0.0797334
37	0x3dff2077	0.12457364
38	0x3dec55fa	0.11539836
39	0xbd2b8543	-0.041875135
40	0xbda427b7	-0.080153875
41	0xbca14f32	-0.019691084
42	0x3d9c24e4	0.07624224
43	0x3db3a5da	0.08771868
44	0xbe56db0e	-0.20982
45	0xbe54aabe	-0.20768258
46	0x3e116f8e	0.14202711
47	0xbd5320ac	-0.05154483
48	0xbd0b542e	-0.034015827
49	0x3e505f7e	0.20348927
50	0xbd4cb66d	-0.049978662
51	0xbe0663f2	-0.13124064
52	0x3c7d5f7b	0.015464659
53	0xbdcb20f1	-0.099183924
54	0xbe223e24	-0.15844017
55	0xbc1522f2	-0.00910257
56	0x3e1907f9	0.14944448
57	0xbdd6ce77	-0.10488599
58	0xbd02ea60	-0.0319618
59	0xbe118306	-0.14210138
60	0x3d9b03b1	0.075690635
61	0xbe2be9ff	-0.16788481
62	0xbe4849ab	-0.19559352
63	0xbd815e02	-0.06316759

backbone_network.2.weight f4 [3, 64]
0	0x3d2e7b90	0.042598307
1	0x3c33f8c0	0.0109846
2	0xbd95b74f	-0.07310354
3	0x3dc78469	0.09742052
4	0xbb17f50c	-0.002318683
5	0x3d7bbc18	0.061458677
6	0xbda43c1d	-0.08019278
7	0x3d969c2b	0.073540054
8	0xbd8bbc31	-0.06823004
9	0xbd020abe	-0.031748526
10	0xbdca227e	-0.0986986
11	0x3d87d3f9	0.066322275
12	0x3d51ed6a	0.051251806
13	0xbd630900	-0.055428505
14	0x3c73bd72	0.01487671
15	0x3d51af5c	0.051192626
16	0x3be8b28c	0.0071013626
17	0x3d86b2f5	0.06577102
18	0xbd62c4fa	-0.055363633
19	0xbde02d2c	-0.10946116
20	0x3d977206	0.07394795
21	0x3db15231	0.08658255
22	0x3dde06a7	0.108411126
23	0x3d69a4e1	0.057042006
24	0x3c27a514	0.010232229
25	0xbdc4b443	-0.09604695
26	0x3c8c8181	0.017151596
27	0x3dd80f79	0.10549826
28	0xbded7706	-0.115949675
29	0xbdd1406e	-0.10217367
30	0x3daaac78	0.08333677
31	0x3c0e4cb0	0.008685276
32	0xbdb80734	-0.08985749
33	0xbd9d4272	-0.07678689
34	0x3d646d53	0.055768322
35	0x3db19433	0.08670845
36	0xbdaee8ab	-0.08540472
37	0xbdb14ca7	-0.086571984
38	0xbdbfa170	-0.09356964
39	0x3d8c28e3	0.06843736
40	0x3d727efc	0.059203133
41	0x3d63d1c4	0.05561997
42	0xbdce9d0d	-0.10088549
43	0x3d8dcc5a	0.069237426
44	0xbcb02ce8	-0.021505788
45	0x3c76d407	0.0150652
46	0xbd47f13e	-0.04881405
47	0xbd9cbb06	-0.076528594
48	0x3d77d007	0.060501125
49	0x3dbff347	0.09372573
50	0xbc8540bc	-0.01626622
51	0x3d50bc66	0.05096092
52	0xbdd1a8f7	-0.102373056
53	0xbe094380	-0.13404655
54	0x3cd3eada	0.025868822
55	0x3cdc3a0c	0.026883148
56	0x3d2363ed	0.03989022
57	0x3d82aa8a	0.06380184
58	0xbbe2d0df	-0.006921872
59	0x3de343ed	0.1109694
60	0x3d7b018f	0.061280783
61	0x3dac1fc4	0.08404496
62	0x3d9776e7	0.07395726
63	0xbc69e4e3	-0.014275762
64	0xbdca526b	-0.09879001
65	0xbcc99576	-0.024607401
66	0x3dbf8cd9	0.093530364
67	0xbde7af7a	-0.113127664
68	0xbe079d23	-0.13243537
69	0xbd07e10d	-0.03317361
70	0x3d395b15	0.04525288
71	0xbce53689	-0.027980106
72	0x3d37e317	0.044894304
73	0x3ddb37a0	0.10703969
74	0x3d86459d	0.065562464
75	0xbdfb085d	-0.122574545
76	0xbde60751	-0.11231864
77	0xbd9c5d02	-0.07634927
78	0x3db7cf34	0.08975068
79	0x3da242df	0.07922911
80	0x3da6c0a8	0.08142215
81	0xbdbc0137	-0.09179919
82	0xbcd07948	-0.025448456
83	0xbd6ea62b	-0.05826394
84	0xbd8b2e72	-0.06795968
85	0x3d7435d3	0.059621643
86	0x3caee622	0.02134997
87	0x3d15aacd	0.03653984
88	0x3d5421bb	0.05178998
89	0xbe141aa5	-0.14463289
90	0x3d625c4d	0.055263806
91	0xbda7277a	-0.081618264
92	0xb9ebbfae	-0.00044965505
93	0x3c0062c0	0.007836044
94	0x3c5bb46b	0.013409714
95	0xbd469eb3	-0.04849119
96	0x3ce1c9f4	0.027562119
97	0xbcf5fee6	-0.030028772
98	0xbc92d776	-0.017925005
99	0xbd7851a1	-0.060624722
100	0x3d7850f5	0.06062408
101	0x3da47dc0	0.080317974
102	0xbd914c1b	-0.07094594
103	0xbbc34e40	-0.005960256
104	0x3d9435ca	0.07236822
105	0xbd971d19	-0.07378597
106	0xbcbacb79	-0.022802101
107	0x3d94374c	0.072371095
108	0xbdac8388	-0.08423525
109	0xbd8ef79b	-0.06980821
110	0x3cfb05f4	0.030642487
111	0x3d019177	0.031632867
112	0x3c220633	0.009889173
113	0xbd34f698	-0.044180483
114	0x3db4823f	0.08813905
115	0xbdb5d807	-0.088790946
116	0xbd083783	-0.033256065
117	0x3aae6132	0.0013304113
118	0xbe01d1fe	-0.12677762
119	0x3d72af58	0.059249252
120	0xbbe948f5	-0.007119293
121	0xbd451837	-0.048118796
122	0xbcbe3906	-0.02322055
123	0x3d9205d5	0.071300186
124	0x3cef0dc3	0.029181367
125	0xbdebd698	-0.1151554
126	0x3cd14a80	0.02554822
127	0x3d214440	0.03937173
128	0xbd5c332a	-0.05375973
129	0xbcd46ecf	-0.025931744
130	0x3cb29d74	0.021803595
131	0xbd5922ef	-0.05301183
132	0xbcf0a42b	-0.029375156
133	0x3c46db11	0.01213719
134	0xbd4a225f	-0.049349185
135	0xbd963ec1	-0.07336188
136	0x3de2aad1	0.11067737
137	0x3d44e61b	0.04807101
138	0xbdf9e7b1	-0.12202395
139	0xbabf0723	-0.001457427
140	0x3dc12d55	0.094324745
141	0xbd4b320f	-0.049608286
142	0xbd622f67	-0.055220988
143	0xbd5db88b	-0.054131072
144	0x3d58b6bd	0.052908648
145	0xbd1e5932	-0.038659282
146	0x3d52566f	0.05135196
147	0xbdea8e9c	-0.11452982
148	0x3dc06dfe	0.09395979
149	0xbc28831b	-0.010285164
150	0x3da32082	0.07965185
151	0x3d67b18b	0.056565803
152	0xbc849cb5	-0.016188005
153	0xbd92d22b	-0.071689926
154	0xbd09469c	-0.033514604
155	0xbd738970	-0.059457242
156	0x3d090ce4	0.03345956
157	0x3dc7ea29	0.097614594
158	0xbd61b1ab	-0.055101078
159	0xbc6ee3c4	-0.014580671
160	0xbdb9a2e3	-0.09064271
161	0xbdbfa7f6	-0.09358208
162	0xbdc2f0dd	-0.09518597
163	0xbdc8165e	-0.09769891
164	0x3cbd05e8	0.023074105
165	0xbdbd2579	-0.09235663
166	0xbdefb1b4	-0.11703816
167	0xbd098928	-0.033578068
168	0xbdf116ec	-0.1177195
169	0x3da078d5	0.07835547
170	0xbd6ccba7	-0.057811406
171	0xbdb39413	-0.08768477
172	0xbd4e4a58	-0.05036387
173	0xbd1e6e34	-0.038679317
174	0xbd64777f	-0.055778023
175	0xbdbd70de	-0.09250043
176	0xbd357687	-0.04430249
177	0x3dffd6e6	0.124921605
178	0x3ce96451	0.028490217
179	0x3dbc103d	0.09182785
180	0x3db34ea4	0.08755234
181	0xbd9430f2	-0.07235898
182	0x3dcf2bf9	0.10115809
183	0x39f52b7a	0.00046762434
184	0x3d50098c	0.050790355
185	0xbdbc0d03	-0.09182169
186	0x3dc0fda6	0.094233796
187	0x3de17554	0.11008707
188	0xbc256db0	-0.010096952
189	0xbdbcdcda	-0.092218116
190	0x3cde5d57	0.027144117
191	0xbd75b39b	-0.05998574

backbone_network.2.bias f4 [3]
0	0xbd8cc3e7	-0.06873303
1	0x3d7912e9	0.06080905
2	0x3e031bbd	0.1280355
