Method/parameters/net_demo.pth (torch, 8344 bytes, 4 tensors)

backbone_network.0.weight f4 [64, 20]
00000000: 2c7e 56bd 1139 11bc d972 d7bd b1c8 3b3e
00000010: 4440 1d3d 2e3d 693d 3afd 3abe 1cce 68be
00000020: d71a 93bd a337 273e 0971 4c3e 7d92 8e3c
00000030: 0a5d c6bd 90a9 35bd 8af8 133d 8991 e0bd
00000040: c3a0 2f3e efe0 9b3d e865 1cbe 7bc9 48bc
00000050: da55 4bbe d188 b0bd df03 b3bd 8e33 aa3d
00000060: b093 18be 6089 ae3d 3d73 6abe 5a46 71bd
00000070: 60eb 6d3b 93cd e4bd 1424 15be 23ae 4f3e
00000080: ecd4 22bd 7ecc 24be 2b4b 2b3e 32cc 523e
00000090: 5ca6 173e 6c4c 083e 7ef4 833d dc0e 80bd
000000a0: 945d 813d c740 dd3d 1e9c 97bd 21e3 27be
000000b0: b906 813d c9e2 143e 986a 09be 3480 d53d
000000c0: a585 0abe 3f7e e6bd 3a4a c5bd 81c6 153e
000000d0: ea6e 15bd ce16 63be 363c f5bd 851e 36be
000000e0: 46d4 17be cd42 f73d 501f 47be 32f3 4ebb
000000f0: 5c43 36be d066 543e f860 3e3e 1397 4b3e
00000100: e97d 83bd c323 e5bd 4aed 44bc c6db 16be
00000110: 9cc4 cdbd da2f 48be 9168 3f3e 6a52 9dbc
00000120: 0ae3 95bd e73a 1dbe caa7 d43d b73e 33be
00000130: 7ae6 493e 5a4d 3b3e 22df 5dbe 14ae 123e
00000140: 6346 303c 54b2 073d 20ca 68be 8f1c ae3d
00000150: cb61 943d 9546 2ebe b0c4 493e f24a 68bd
00000160: 1557 b0bd fba4 bc3c 9b4f 6dbd 8116 eb3c
00000170: 803b 30bd cbfe c7bd 7117 1dbe 93bf 3bbb
00000180: 51d6 463e d68e c1bc 46a4 213d 005c 55bd
00000190: 26a3 da3d 2242 e23d 0e23 8fbc 4973 c0bd
000001a0: 3db8 0abe 0ca3 5fbe 14d3 d73d 0085 5d3e
000001b0: 423c c3bd b226 7d3b 3050 b03d ec5b 26be
000001c0: 7edc 31bd d832 d03d dd11 303e 1842 1dbb
000001d0: 3c3b febd de44 993d 61fd 34be 2c40 3dbe
000001e0: 968c e33d 212f 2f3e b617 c13b 3708 2cbe
000001f0: 532a 263e 610c d13d e3c2 373e 9d43 e4bc
00000200: a449 5ebe b41c 3b3d 148e 03be b036 073e
00000210: b494 d53d 39c1 f43d 9bfd d0ba 765b 5b3d
00000220: b422 6ebe e7fc bc3d abdc 10bc 33ce 053e
00000230: 069e 33be b0c6 4bbe 3a93 2e3d 132d 163e
00000240: 48da 273e 29e6 643e 624f b93d 84f5 533e
00000250: 1f72 4f3d 44ff 64bd 3d79 e93d 2519 6dbc
00000260: 6692 1f3e bff5 793d 8252 163e e38f 603e
00000270: 251c a23b 0676 8e3d 90b6 483e 2986 ba3c
00000280: 5150 bc3d 5087 38be 1ab0 0fbe ebab 22be
00000290: e302 27be 4d45 64bd 1205 7b3c a217 d03c
000002a0: 250f c9bd e3ee 253e b920 9f3d 5215 1e3e
000002b0: 2afb 0cbe 7817 2cbd e961 b6bc ca87 42bd
000002c0: b256 41bd be92 22be 4c7c e63d 59c5 443e
000002d0: 5e02 0d3d baa8 913d f7be 70bb 1190 f63d
000002e0: de7e c23d 9168 2a3e 962a 813e b6f5 0fbe
000002f0: 0595 d53d fcfe 48be a69e a6bd eb03 ce3d
00000300: b057 273e cfa7 86bd 31e3 39be 896a 54be
00000310: 7e1e 34be 2ec9 483e 5161 0bbe 4863 843d
00000320: 2366 103d e4d9 1b3e 07ff b93d f938 333d
00000330: 1acb a9bd 9714 23be feea 90bd 2003 603d
00000340: e53b a03d 4757 39be decb 43be 512d 4ebd
00000350: 7f1c 463e fab8 12be 74c5 88bd 7f3a 2fbe
00000360: 4f2f 3b3e 2704 2dbe ab33 b83d be73 66bd
00000370: 7467 f5bd 888f 02be 4f71 f0bd 26c7 b63d
00000380: 69c6 f5bc 1d4e 9ebd 5b0d 4f3e 32b4 0fbe
00000390: aeac 563e 41ec 2d3d 1d58 433e 14ba 433e
000003a0: efd3 12be 02f8 5c3d bdf8 d13d aa3a 763d
000003b0: 7207 0d3e 0c93 183e 292f b83d deff 24bd
000003c0: 7845 b1bd 6a66 193e 6e74 cebd 6f94 3cbe
000003d0: 8cd4 fb3d ac82 303e c954 853d 4232 e93d
000003e0: 061a 4ebe f58f d4bc 3e7e 39be ba25 e8bd
000003f0: 2b5a 4a3e 61b8 343d c181 a33d 82bd 82bd
-0.05236642 -0.008863703 -0.10519952 0.18338276 0.038391367 0.05694311 -0.18260661 -0.22734874
-0.07182854 0.16329817 0.19964994 0.017403835 -0.096857145 -0.04435116 0.036125697 -0.10965259
0.1715117 0.07611262 -0.15273249 -0.012255068 -0.19856969 -0.08619846 -0.08740973 0.083106145
-0.14900088 0.08522296 -0.22895522 -0.058904983 0.0036303625 -0.11172023 -0.14564544 0.20281272
-0.03975384 -0.16093633 0.16727893 0.20585707 0.14809555 0.13310403 0.064431176 -0.06252834
0.06316677 0.10803371 -0.07402824 -0.16395237 0.0630011 0.14539637 -0.13419569 0.104248434
-0.13527544 -0.11254548 -0.09633298 0.14626504 -0.03648273 -0.22176668 -0.11974375 -0.1778508
-0.1482707 0.12073288 -0.19445539 -0.0031578061 -0.17799133 0.20742345 0.18591678 0.19881849
-0.064205 -0.11188462 -0.012019465 -0.14732274 -0.10047266 -0.19549504 0.18692233 -0.019204337
-0.07318695 -0.153545 0.10383566 -0.17504393 0.19716826 0.18291226 -0.2166715 0.14324218
0.010758969 0.03312905 -0.22733355 0.08501541 0.07245215 -0.17019112 0.19703937 -0.0567121
-0.086103596 0.023027888 -0.057937246 0.028697254 -0.043025494 -0.09765395 -0.15340973 -0.0028648123
0.19417693 -0.02362768 0.039463304 -0.05208969 0.10675649 0.1104777 -0.01747277 -0.09396989
-0.13546844 -0.21839541 0.10538307 0.21632767 -0.09532978 0.00386278 0.086090446 -0.16246003
-0.04342317 0.10165948 0.17194314 -0.0023995694 -0.12413642 0.074838385 -0.17674781 -0.18481511
0.11110799 0.17107822 0.005892719 -0.16800009 0.16227083 0.10207439 0.17945437 -0.027864272
-0.21707779 0.04568167 -0.12847167 0.13204455 0.104287535 0.11950917 -0.0015944721 0.05355402
-0.23255426 0.09227925 -0.008841674 0.1306694 -0.1754075 -0.19900012 0.042620875 0.14665632
0.16391861 0.22353424 0.09048344 0.20699126 0.050645944 -0.055907503 0.114000775 -0.014471327
0.1558319 0.061025377 0.14679912 0.21929888 0.0049472027 0.06956105 0.19600892 0.02276905
0.09195007 -0.18020368 -0.14032021 -0.15885894 -0.16309695 -0.055730153 0.015321033 0.025401894
-0.09817342 0.1620441 0.07769913 0.1543782 -0.13767686 -0.04201457 -0.022263484 -0.04749278
-0.04720182 -0.1587629 0.112541765 0.19215907 0.034426086 0.0711226 -0.0036734918 0.12039197
0.09496854 0.16641451 0.25227803 -0.14058575 0.10428814 -0.19628519 -0.081357285 0.10059341
0.16342044 -0.06574976 -0.18153073 -0.20743765 -0.17589757 0.19607994 -0.13611342 0.06464249
0.035253655 0.15219837 0.09081846 0.043755505 -0.08290692 -0.15925823 -0.07076071 0.05469048
0.07823924 -0.180997 -0.19120738 -0.050336186 0.19346808 -0.14328375 -0.06678286 -0.17112158
0.18279766 -0.16896115 0.0899423 -0.056262724 -0.11982623 -0.12750065 -0.11740362 0.08924703
-0.030001836 -0.07729743 0.20219938 -0.14033583 0.2096431 0.042461637 0.19076581 0.19113952
-0.14338659 0.053947456 0.10252521 0.06011454 0.13772371 0.14899844 0.0899337 -0.040283076
-0.08655828 0.14980474 -0.10080801 -0.18415998 0.122963995 0.17237347 0.06510312 0.11386539
-0.20127115 -0.02594755 -0.18114564 -0.11335321 0.19760959 0.04412115 0.07983733 -0.06383802

backbone_network.0.bias f4 [64]
00000000: f2ff 9e3d 5a46 07be 6ef9 bebd 4a5f 663e
00000010: 0cdd dbbc 8f70 383e 4290 c93d bc48 aebd
00000020: 00a1 6cbd 8e19 fa3a 2f68 213e 0e28 36bc
00000030: ee2f 0fbe 9947 45be d40b b73d 20f8 50be
00000040: d8ce 4b3e 547e 153e ac96 9d3d 5522 7bbe
00000050: e993 d23d 5172 e33d ed1f 983d 8cbd a73d
00000060: 3c3f 083e 4d5b 70be f2ff 19be 0339 55be
00000070: 5102 453e 5d39 5abe d425 2fbe 6993 1c3e
00000080: 6e50 4c3e b812 05bd 7337 c83d df42 8f3c
00000090: 716b 263e 3399 48be 9240 13be a459 433e
000000a0: a302 f7bd a317 d1bd d37f f53d 9c31 573e
000000b0: 4cc0 983d 0b56 c2bc 39c7 083e f86a 56bc
000000c0: 58bf 0fbe a737 603e 4c8a 99bd 5f66 05be
000000d0: 5432 863d fe83 e73b 3173 51be 2cdf 173e
000000e0: ba79 d93c bfe4 313e 9b9c 45bd 0d42 50bd
000000f0: 9d7a 93bd 3aab 23be 17c4 2fbe 9828 3a3e
0.077636614 -0.1321043 -0.09324919 0.22497287 -0.026838802 0.18011688 0.09841968 -0.08509967
-0.05777073 0.0019081102 0.15762399 -0.011117948 -0.13983127 -0.19265594 0.08937803 -0.20407152
0.19903123 0.14598972 0.07694754 -0.24524815 0.10282118 0.111057885 0.07427964 0.0819045
0.13305372 -0.23472328 -0.15039042 -0.2082253 0.19239165 -0.21310945 -0.17104274 0.15290608
0.19952556 -0.032488555 0.09776201 0.017487941 0.16251923 -0.19589691 -0.143801 0.19077164
-0.1206105 -0.102095865 0.11987271 0.21015018 0.07458553 -0.02372267 0.13357247 -0.013087027
-0.14037836 0.2189623 -0.07497081 -0.13027333 0.06552568 0.0070652952 -0.20454098 0.14831227
0.026547302 0.17372416 -0.048245054 -0.05084424 -0.07201121 -0.15983286 -0.17164646 0.18179548

backbone_network.2.weight f4 [3, 64]
00000000: bb57 c13c f77b a63d 86f0 513d 89fe 85bd
00000010: 48e9 89bc 626e 033e 4f56 e53d 1e26 203d
00000020: 8151 57bd 2363 6ebc 34e9 a63d 80d9 a8bd
00000030: 2fbc 90bd 9eca d9bd 66d3 e9bd 8935 aabd
00000040: 0792 bfbd 517a c83d 7bc1 dc3d 4bb3 25bd
00000050: a3b3 ba3d ad3b e03d 75e3 e43d 54f1 983c
00000060: 499c f43c 4507 c63d c81b c03d e0bd 2ebd
00000070: aba7 31bb 26cd 423c bc2e 113d 91a2 29bd
00000080: c3ba 23bd 3f10 d13d 9de5 45bd 03ea a0bc
00000090: 211d e93d 9a34 9cbd a179 ebbc 006d c4bd
000000a0: ce0f b1bc d1f6 07bd 2b37 acbd f5fc 9a3d
000000b0: 2cc0 a1bd 9a3a e9bc e1fe 45bd c9cc 1cbd
000000c0: a655 983d 96a5 eabd 2a77 95bd 1dfb e6bd
000000d0: 1da5 b4bd efd7 35bd ef6a ed3b 772b b03d
000000e0: 2c51 95bb f6b8 b0bd 260c 333d 5151 be3c
000000f0: cc9a c6bd eab9 f8bc 23e7 b43d 0778 0bbe
00000100: 47d2 ea3d be9b ccbd 2b9c 6bbc 8f5c 79bc
00000110: 0b53 3cbd ad30 9dbd ddcc 2cbd 61de acbd
00000120: 6c55 793c 8c2a b2bd 7c52 5ebc 002d 8bbc
00000130: d51d 693d f7ad f1bd 2c65 27bd 203e 8e3d
00000140: 9a6d a53d 9285 263c dc86 d2bd a2d3 583d
00000150: a3d9 dabd c3e8 bd3d df3b 02be a792 cc3d
00000160: 0616 f2bd 6201 af3d 07da ef3d dbf9 89bd
00000170: 02d4 f33c a0da 7cbc 64b7 b13d b079 05bc
00000180: bf97 02ba a818 b9bd 73d0 64bc 58d7 a73d
00000190: 19e7 b03d eac4 df3d 3a95 b83d b671 783d
000001a0: d1dc 843d 2684 9ebd 7c54 2d3c 5953 e33d
000001b0: 9f6f b1bd 4525 a43d 8566 343d ef7a 01be
000001c0: 7972 813d 88e6 1abc 3cd2 383d 76ea bfbd
000001d0: dccf 03be 067c ce3d ebbf df3a 6e81 8fbd
000001e0: b4ea 8d3b bde1 a8bd 24ad 9f3d 9192 7d3d
000001f0: 66e6 98bd de59 9c3d 2f3c f6bc 020c 183d
00000200: 9e64 35bd 2e7d ca3d 27d6 633c a1d3 f53d
00000210: 0cc9 a6bd 0e4a 693c 3b83 b3bb 9352 dfbb
00000220: 1a8e d0bd 706b 8f3d 881a af3d 2c47 87bc
00000230: 0d10 f83d 102c dbbd eb5d 023a b15b eabd
00000240: fa20 78bd 7401 04bd 4e23 f93c f2e0 f0bd
00000250: b95e 213d 095b a0bd 9e76 ddbd 1cd7 b7bd
00000260: 1090 2fbc fc60 9abd bc5d f1bd d376 b53d
00000270: 17ab 48bd 3bac a1bc 0f3e 703d 3507 0b3e
00000280: e6ec fc3d cb1a e33d 4947 a1bc 9031 d4bb
00000290: c13c 303d 3d7a 643d 96bf abbd d2f9 82bd
000002a0: ba14 5f3b 121a 78bc 085b 50bd 4532 c73d
000002b0: 70ef ad3d 4e40 083e dd04 a3bd e4d4 f33c
000002c0: 109e e93d 625b 853d 152c d03d ab96 2abd
000002d0: 9ac1 c1bd 0aab 6dbb 19d9 dc3d 058d 723d
000002e0: a6de c1bd 55c6 84bd 2bf7 a8bd f7b6 88bc
000002f0: fdd8 bdbd cf88 473d c29b 463d 9773 b43d
0.023601403 0.08129113 0.05125477 -0.06542689 -0.01683487 0.12835076 0.11198103 0.03909885
-0.052567963 -0.014550003 0.08149949 -0.0824461 -0.07067143 -0.10634349 -0.11417274 -0.08310992
-0.093540244 0.09788955 0.10779091 -0.04045419 0.09116294 0.10948882 0.111761965 0.018669762
0.029859679 0.09669355 0.09380299 -0.042661548 -0.0027107995 0.0118897315 0.03544496 -0.0414148
-0.03997303 0.10208177 -0.04831468 -0.019642835 0.11382509 -0.076272205 -0.02874452 -0.095911026
-0.021613982 -0.033194367 -0.0840896 0.07567779 -0.07897982 -0.028470326 -0.048338775 -0.038281236
0.07438211 -0.11457364 -0.07298119 -0.11278365 -0.08820555 -0.044395383 0.0072454135 0.0860204
-0.0045567956 -0.086290285 0.043712758 0.023232134 -0.09697494 -0.030362088 0.08833148 -0.13620006
0.114658885 -0.09990643 -0.014380495 -0.015219822 -0.045977633 -0.076753 -0.04218756 -0.08440853
0.01521812 -0.086995214 -0.0135694705 -0.016989231 0.056913216 -0.11800759 -0.04086797 0.06945443
0.080775455 0.010163682 -0.10279629 0.052936204 -0.10686042 0.092729114 -0.12718152 0.09988909
-0.11820607 0.085451856 0.11711507 -0.06737109 0.02976418 -0.015432984 0.08677557 -0.008146688
-0.00049817184 -0.09037906 -0.013965714 0.081953704 0.086378284 0.1092623 0.09012838 0.06065532
0.0648743 -0.07740049 0.010579225 0.11099882 -0.08663868 0.08014921 0.044043083 -0.12644552
0.06320662 -0.009454377 0.04512237 -0.09370892 -0.12872261 0.10082249 0.0017070746 -0.07007109
0.0043309573 -0.08246181 0.07796696 0.061907355 -0.0746582 0.07634328 -0.030057995 0.037120827
-0.04428541 0.098871574 0.013906038 0.12003256 -0.081438154 0.014238847 -0.0054782904 -0.0068152635
-0.10183354 0.07002914 0.08549982 -0.01651343 0.121124364 -0.10701764 0.00049731013 -0.1144327
-0.060578324 -0.03222795 0.030412342 -0.11761655 0.039396975 -0.078298636 -0.1081364 -0.08976576
-0.0107154995 -0.075380296 -0.117854565 0.088605545 -0.04899129 -0.019735446 0.058652934 0.13576968
0.12349872 0.11089095 -0.019687312 -0.006475635 0.04302669 0.055780638 -0.083861515 -0.06395306
0.0034039454 -0.015142934 -0.050868064 0.09726385 0.08492935 0.1330578 -0.07959912 0.0297646
0.11407101 0.065115705 0.10164658 -0.041647594 -0.09460755 -0.0036265277 0.107835956 0.059216518
-0.09466295 -0.06483141 -0.082502685 -0.016688807 -0.09269903 0.048714455 0.048488386 0.088111095

backbone_network.2.bias f4 [3]
00000000: 671d 9e3d 37cf 0e3b f805 b3bd
0.07720452 0.002179099 -0.08741373
