Method/parameters/net_demo.pth (torch, 8344 bytes, 4 tensors)

backbone_network.0.weight f4 [64, 20]
00000000: 35d8 bcbd 1440 0cbd 1536 aa3d d0da 65be
00000010: 1b4f 62bc 2089 4a3e 3232 f43b 48f9 3f3e
00000020: 27d5 d5bd e8c7 0e3d 8bf0 5d3e 54fc 483e
00000030: 0a6b 22bd a521 283e 67cc f9bd 6f85 2bbe
00000040: 025f c53d 4f6d 283a bc8f 833d 618f 2e3e
00000050: 5a33 82bd 105f 5a3d be01 50be a561 38be
00000060: 2881 733c 5e44 d13d d462 2fbe fd01 ed3d
00000070: 66b0 103e 1ba6 743d b8d0 64be 89f2 d4bd
00000080: 990d 7bbd 7fd0 8a3d 19a2 863d 93d9 333e
00000090: 37aa 433c 8c69 a1bc 07e9 2b3e a81f 55be
000000a0: 265a 9cbd f94b 9cbd 2f41 15be f8c7 583e
000000b0: 999e 1d3d 231d 5abe 13f5 a7bd 46f7 013e
000000c0: 5bc1 733d 6b30 5ebe ae26 de3d 9ac5 20bb
000000d0: d9ac 473e 2ed1 44be 67af 93bd 964d 403d
000000e0: d298 c83b 26f0 bb3d f36f aebd f30f cf3d
000000f0: 51e4 123d 5dbe 513e 2145 55be fe6c 46bc
00000100: bf0e fb3b d706 fbbd 17e7 ebbc 1c6a db3d
00000110: 05c2 20bc 27f7 04be 6733 0cbe 9a47 34be
00000120: c53c e6bb eb66 433e 2d01 1e3e edad d73d
00000130: cc5a f23d bd74 f0bd e89f 8ebc b21f 9d3d
00000140: 8e4a 1abc 7914 e33d be61 bebd 21a9 1dbe
00000150: 2164 28be 6304 663e d32c fbbd d912 243d
00000160: d51f 173e cf14 543e 3b48 f43d 3c0f 12be
00000170: a627 58be f994 813d 5ed5 5e3e 1275 b43b
00000180: 3e07 14be f24a 32bd 6bd6 833d d1d2 51be
00000190: 5480 99bd fdd8 f7bc 80d0 22bd 69dc bebb
000001a0: 3588 1ebe f29e cbbd ea39 dbbd 850c 603d
000001b0: 3b50 27bd 8b52 29be 9bb0 38be 0a58 373e
000001c0: 1110 1cbe 548e cabd 9c24 4ebe 817d 0bbe
000001d0: 80f8 14be 243b c4bc 93ce 3b3e fe68 50be
000001e0: ca13 20be db49 9b3d c1b7 d03b 685a 453e
000001f0: a366 a43d eb41 16be c27b 103e a7c3 fdbd
00000200: 7b53 c1bd c893 1ebc e2e0 4fbd 8848 72bb
00000210: 9e8c d4bc f397 e3bc d8c6 b63d 4d75 1c3e
00000220: bc63 d43d 45dd e63c 7aa7 f9bc 1173 d73d
00000230: e542 533e 1e98 04be 44b9 013e 0021 1bbd
00000240: 1545 583e bd42 2cbc 79df bc3d 849e 1ebe
00000250: 5739 38bc ff9b 593e f641 263e e57f 693e
00000260: 7c5b 573d 40fe 913d f894 b43d 84fc dcbc
00000270: 4b90 093e bac3 c8bd f52b c0bb 28aa 443e
00000280: 05e2 ae3d 3c13 b13d 9311 02be 7c05 52bc
00000290: ce16 563e 510e 473d 8161 0ebe 1858 2d3c
000002a0: 98fc f93d 113f e03c c2b9 30be 4bed 78bd
000002b0: 1910 efbc c0fd c13d 3d52 b3bd ca76 8ebb
000002c0: 2b41 863d 77c5 adbc c252 30be 2999 f03d
000002d0: 699b 2d3e 4842 27be ffda 1a3e dd6d f7bd
000002e0: 9c2d 4bbe 5681 413e b2fd 91bd a0c2 e3bd
000002f0: adff eebd e2b4 073e 2241 44bd 9383 9c3d
00000300: 60ab cfbc 850c 523e b563 d43d ca2a 4fbc
00000310: e166 bbbd 7f0a 723d 4c31 133e 9821 403e
00000320: a015 1b3e 2bf7 313e 863a 67bd 0f7a a6bc
00000330: 0fc0 ad3d e3e5 57be 7106 15be fcef 523e
00000340: 67b0 14bd a0da 0ebe d474 a7bd e597 c2bc
00000350: 4350 42bd 7b8f dd3c 3251 b63d 2518 2c3e
00000360: 303d 5c3d a5af 3e3e bc4f 673d d1b9 b0bd
00000370: 0e88 2f3e ed17 cebd 3008 513e 46c9 1dbd
00000380: 8f5e 02bc b07c 89bd 4e36 363e ea55 2c3e
00000390: b966 20bd f8d6 fd3c c237 dbbd 8411 583e
000003a0: f4e8 03be b4d1 60bc 0dc6 ea3d e270 8abd
000003b0: 7c2f 193b 6be9 ee3d 7695 4dbe 6362 2a3c
000003c0: 92f2 3cbe 99a2 db3d 6ce0 043e 90a8 12be
000003d0: 533d 603e 198f c0bc 63fd 23be 9b9f 97bd
000003e0: 6de9 32bd cfee e93d a203 803a ee62 16be
000003f0: 0908 24be f3c4 86bd b259 243e 3310 8bbd
-0.09220926 -0.034240797 0.083110966 -0.22446752 -0.0138128055 0.19778872 0.007452273 0.18747437
-0.10441046 0.034858614 0.21673791 0.19627506 -0.03965286 0.16419084 -0.1219719 -0.1675012
0.09637262 0.00064249797 0.064238995 0.17046882 -0.06357451 0.053313315 -0.20313165 -0.18005998
0.014862336 0.10218118 -0.17127544 0.11572645 0.1412979 0.059728723 -0.22345245 -0.103978224
-0.061292265 0.06778049 0.065738864 0.17563467 0.011942438 -0.019703649 0.16788112 -0.20812857
-0.07634382 -0.07631678 -0.14575647 0.21170032 0.03848133 -0.21300177 -0.08201041 0.12691984
0.05951057 -0.21698157 0.10847221 -0.0024531842 0.1949953 -0.1922042 -0.0721119 0.04694899
0.006121733 0.09176664 -0.08517446 0.10110464 0.03586227 0.20482774 -0.20827152 -0.012110947
0.00766167 -0.12257164 -0.028796716 0.10713598 -0.009811883 -0.12984906 -0.13691483 -0.17605439
-0.0070262873 0.19082229 0.15430136 0.105312206 0.118337244 -0.11741016 -0.017410234 0.07672061
-0.009417189 0.11087889 -0.092959866 -0.15396549 -0.16444446 0.22462611 -0.12264409 0.040057037
0.14758237 0.20711063 0.11927839 -0.14263624 -0.21108875 0.063272424 0.2176108 0.00550712
-0.14455888 -0.043528505 0.06437381 -0.20490576 -0.0749518 -0.030254835 -0.039749622 -0.005824615
-0.15481646 -0.09942426 -0.107044056 0.05469944 -0.040847998 -0.16535394 -0.1803612 0.17904678
-0.15240504 -0.09890428 -0.20131153 -0.13622095 -0.1454792 -0.023953982 0.1834052 -0.20352551
-0.15632549 0.07582446 0.0063695614 0.19272768 0.08027389 -0.14673583 0.1410971 -0.12390833
-0.09439751 -0.0096787885 -0.050751574 -0.0036969502 -0.025945958 -0.027782416 0.08924645 0.15279122
0.10370585 0.028181681 -0.030475367 0.10519994 0.20630987 -0.12948653 0.1266833 -0.037873268
0.21120103 -0.0105139585 0.092223115 -0.15490156 -0.01124414 0.21250914 0.162361 0.22802694
0.05257748 0.071285725 0.08817476 -0.026975878 0.1343395 -0.09802957 -0.005864615 0.19205534
0.085392036 0.08646247 -0.12702017 -0.01281869 0.20907137 0.048597638 -0.13904382 0.010580085
0.122063816 0.027373822 -0.17258361 -0.060773175 -0.02918248 0.09472227 -0.0875592 -0.004347657
0.065553986 -0.021212323 -0.1721907 0.11747963 0.16953816 -0.16333878 0.15122603 -0.12081502
-0.19841617 0.18896994 -0.07128467 -0.11121106 -0.1166986 0.13252595 -0.047913678 0.07642283
-0.025350273 0.20512588 0.1037058 -0.012644479 -0.09150482 0.05909204 0.14374274 0.18762815
0.15144968 0.17379443 -0.056452297 -0.020321874 0.08483898 -0.21083789 -0.14553238 0.2059936
-0.036301043 -0.13950586 -0.0817658 -0.02375407 -0.047439825 0.027045956 0.089022055 0.16806085
0.05376929 0.1862169 0.056472525 -0.08629192 0.17141744 -0.10063157 0.2041328 -0.038522027
-0.007957115 -0.067132354 0.17794153 0.16829649 -0.039160464 0.030986294 -0.10703994 0.21100432
-0.12881833 -0.013721872 0.114635564 -0.06759812 0.002337425 0.11665615 -0.20076546 0.010399434
-0.18451908 0.107243724 0.12976235 -0.14322114 0.21898393 -0.023505734 -0.16014628 -0.07403489
-0.043679643 0.11422502 0.0009766708 -0.14686176 -0.1601869 -0.06580534 0.16049841 -0.06790199

backbone_network.0.bias f4 [64]
00000000: 880e b93c 4050 343e 1253 f9bd 6d77 68bd
00000010: c637 043e 6b22 1ebe 2f52 0f3e c88d 043e
00000020: 97c4 92bc a7be c5bc 12cb 24be 25de cdbc
00000030: 1ba2 2f3e ae63 5ebe b685 ea3d 9c03 053e
00000040: af6f 133d d742 053e cb85 c5bd 27f4 0c3e
00000050: 3f55 523e 73a4 b13d b61b 333d 6413 8abc
00000060: defb 59be cb5b 53bd 359b f0bd 0226 7cbd
00000070: 23bf ad3b c29c 16be f822 0e3e a850 3d3e
00000080: 3347 39be 7b79 083e 54e5 a53d 9c4c c13d
00000090: db6e 55be c1a4 65bd cee2 1c3e faf1 9c3d
000000a0: 9a26 2cbe 7ac2 313e 275b a93b e0f0 dbbd
000000b0: de04 b43d 1661 33be 8d75 16be 6bbe 233d
000000c0: ae30 873c 2509 3fbe 90fd c83d d72f fa3d
000000d0: 626f 263e 5dd8 79bd 16a3 833d 0537 133e
000000e0: 9e9f d0bd 0e08 3d3e c1cd 923b d223 c7bd
000000f0: 3bf1 41be 2255 31be a66c 9ebd 0985 133e
0.022589937 0.17608738 -0.121740475 -0.05675452 0.12911901 -0.15442817 0.13996194 0.1294471
-0.017916007 -0.024138762 -0.1609309 -0.02513034 0.17151682 -0.21717712 0.114512846 0.12989658
0.03599518 0.13013779 -0.096446596 0.13765012 0.20540331 0.08673944 0.0437276 -0.01685495
-0.21287486 -0.051601212 -0.117483534 -0.061559685 0.0053023263 -0.14708236 0.13880527 0.18487799
-0.18093567 0.13327591 0.081003815 0.0943844 -0.2084307 -0.056065325 0.15320894 0.07663341
-0.168116 0.17359343 0.005168337 -0.10739303 0.08789991 -0.17517504 -0.1469328 0.03997652
0.016502704 -0.18655832 0.09813988 0.12216156 0.16253427 -0.060997356 0.064275905 0.14376457
-0.101866946 0.18460104 0.004480094 -0.09723629 -0.18939678 -0.17317632 -0.07735567 0.14406218

backbone_network.2.weight f4 [3, 64]
00000000: f4e8 f0bd 3731 033e aeb1 813d a242 9ebd
00000010: 998a 84bd 42fe 9cbd 4463 aebd f8e2 973c
00000020: 0f58 e5bd 8f64 7cbd 20b7 27bd 836d 5d3d
00000030: 9233 9dbb b598 2bbc 6660 48bb fc5d f73c
00000040: 5ef5 b2bc bb47 fb3c 316d 4bbd 5aed 3cbd
00000050: 89ab a6bd 4cce e33d a40a b2bd b8b3 803b
00000060: 7c34 71bd 5ac7 4ebd 7cdb ec3c 6a31 5d3d
00000070: 439e 9abd 2b9b 183e bd0b 20bd 7861 ff3d
00000080: 648c 533d 340e 413d b66e d0ba 86fc 20bd
00000090: 71ba 45bd 36f3 b6bd 3974 873d 702d afbc
000000a0: 611a afbd 450f 9f3c 3d64 ab3d 3f45 8bbc
000000b0: 8045 9abd 557f c3bd 3f69 9cbc 85b2 ffbc
000000c0: cfa8 063e 19c0 efbc a6f0 e63c d3a8 88bd
000000d0: f463 de3c b9d3 9dbd 716f 2d3d 9afd 073e
000000e0: 88de 5bbb f680 d93d 4d80 dc3d e6fc 2d3d
000000f0: 0b0d dc3d 8b20 7b3d ca14 5bbd a0d8 98bd
00000100: b0fa 2ebd 5c74 053d f8e2 bc3d c3aa 33bd
00000110: 03aa 98bb 9650 1c3d 66ec 083d 3dd0 913d
00000120: 0998 b339 b047 47bd 6334 9abd 728c a3bd
00000130: 8ed3 9a3c ddfd cabd bbab 20bd 9cd0 623d
00000140: 8e8a 973c 8f50 653b 7021 aeba 06d7 4dbd
00000150: e2cc 013e cba9 78bd d299 1a3d a561 3abd
00000160: 3f72 b03d 1a9b 463d 9eef a2bb d897 cfbc
00000170: a679 67bd ed9b c43c f217 c6bd d72a 12bd
00000180: e6c8 c5bd 11e8 94bd 9c48 9bbc f4be 213d
00000190: 91e2 b03d 261e fa3c d7b1 15bc de7b 9fbd
000001a0: f141 b43c dd17 103e b883 0cbd a411 62bc
000001b0: 35d9 c4bd 5372 59bc 28d5 d6bd 88ec 773c
000001c0: fe5c 383d a6d3 7ebc 0393 e4bd a932 ecbd
000001d0: 0f09 113d e758 febd 834a 84bd ed64 aa3d
000001e0: 75e5 97bd abcd a43d 5639 e0bc a8d9 e6bd
000001f0: ce2f 1dbd 6df0 3b3d bb4b c9bc 5032 9f3d
00000200: c362 6bbd bb6b 213d b7f5 00be eb2d bbbd
00000210: 0859 9fbc 319c c53a 8b82 cf3c d371 d1bd
00000220: 482e bd3d 4d37 46bd 3ec1 6a3d a469 1b3b
00000230: c7b9 49bd 3aff 02be d829 82bd 6843 f9bd
00000240: e5fb 2ebc b63c 0f3c 631d 393d cbec 233d
00000250: 2ec6 a1bd ae6a aa3d f6a1 81bd be9f de3d
00000260: 5182 0abe fa17 a73d ccd0 d3bd 0db1 babd
00000270: 9156 f9bd 9eb6 b7bd ab3f 05bd b63d b93d
00000280: 7b84 923c 2911 a43b 4843 883d cbe5 f4bc
00000290: 2ef1 8d3d d972 cabd ce2a adbb b778 d93c
000002a0: b594 c93d d9fe 503d 7dab f53c 8d6f 85bc
000002b0: 1312 36bc c94d c5bd fc89 8c3d 7937 153d
000002c0: 610c 00be 190c 2e3d 9f76 213c f4e6 e7bc
000002d0: 8487 1c3d 3f90 6cbd 30b2 b03d ed25 be3d
000002e0: e535 9fbc d195 8c3d d210 32bb 6c05 cf3c
000002f0: bb50 a13d 73c0 17bd 51b6 dcbc a27b d4bd
-0.11763182 0.12811743 0.06332718 -0.07727553 -0.06471748 -0.07665683 -0.08515027 0.018540844
-0.111984365 -0.061619338 -0.040946126 0.054059517 -0.0047974074 -0.01047342 -0.0030575036 0.030196182
-0.021845516 0.030673852 -0.04966468 -0.046124794 -0.081381865 0.111233324 -0.08693436 0.003927674
-0.058887944 -0.050483085 0.028913252 0.054002203 -0.07549717 0.14902942 -0.039073694 0.124697626
0.05164756 0.047132686 -0.0015902135 -0.039303325 -0.048273508 -0.089331076 0.066139646 -0.021383971
-0.08549953 0.01941646 0.08368728 -0.017000793 -0.07532787 -0.09545771 -0.019093154 -0.031213054
0.13150333 -0.029266404 0.028190922 -0.06672826 0.02714727 -0.077063985 0.042342607 0.13280335
-0.0033549387 0.106203005 0.10766659 0.04247751 0.10744675 0.061310332 -0.053486623 -0.07463193
-0.042719543 0.032581672 0.09222978 -0.043864023 -0.004658939 0.03816279 0.033428572 0.071197964
0.00034254816 -0.04865235 -0.07529523 -0.07985772 0.018899705 -0.09911702 -0.039226275 0.055374727
0.018498685 0.0034990644 -0.0013285112 -0.05025389 0.12675813 -0.060708802 0.03774435 -0.045503277
0.08615541 0.04848776 -0.0049724123 -0.02534096 -0.056512497 0.024000132 -0.09672536 -0.035685387
-0.09657459 -0.07270826 -0.018955521 0.039488748 0.08636964 0.030531954 -0.009136639 -0.07787298
0.0220041 0.14071603 -0.034305304 -0.013798151 -0.096117415 -0.013271886 -0.10489875 0.015132077
0.04501056 -0.015553391 -0.11160853 -0.115331 0.03540903 -0.124193005 -0.064595245 0.08320031
-0.07416812 0.080470406 -0.02737109 -0.112719834 -0.03837567 0.045883585 -0.024572244 0.07773268
-0.057467233 0.03940938 -0.12593733 -0.091396175 -0.019451633 0.0015076456 0.025330802 -0.10226788
0.09237343 -0.048392583 0.057313196 0.002371409 -0.049249437 -0.12792674 -0.06355637 -0.1217106
-0.0106801735 0.008742502 0.04519404 0.040020745 -0.07899128 0.08321129 -0.0632972 0.10870312
-0.13526274 0.0815887 -0.10342559 -0.09115801 -0.12174714 -0.08970378 -0.03253142 0.090449736
0.017885437 0.0050069285 0.06653458 -0.02989473 0.06930767 -0.09885187 -0.0052846437 0.02654682
0.09842817 0.05102429 0.029988999 -0.016288543 -0.011112708 -0.09633977 0.06862256 0.036429856
-0.12504722 0.042492006 0.009854942 -0.02830837 0.038215175 -0.05775475 0.086277366 0.092845775
-0.019434879 0.06864513 -0.002717067 0.02527114 0.07876726 -0.03704877 -0.026942404 -0.103751436

backbone_network.2.bias f4 [3]
00000000: e82e 9bbd 513f de3c bfbe cd3d
-0.07577306 0.027129801 0.100461476
