Method/parameters/net_demo.pth (torch, 8344 bytes, 4 tensors)

backbone_network.0.weight f4 [64, 20]
0.20086426 -0.22846785 -0.12013673 -0.19212098 -0.13732596 -0.20939052 -0.06283953 -0.10231367
-0.091826454 -0.061314695 0.039121985 0.18821803 0.025522806 0.051739737 0.12865897 -0.22761115
0.19558848 0.011417955 0.080581576 -0.18217483 0.058329076 -0.18517573 0.10926101 -0.05775203
-0.11898279 0.10928895 -0.19224983 -0.13587622 0.160851 -0.07383788 -0.0028281806 0.034692124
-0.035412777 0.035690162 0.12931891 -0.11824199 0.20378451 0.040205505 -0.13821891 0.0029975087
0.18443578 0.092261 0.08768432 -0.20112996 0.17591532 -0.14051971 -0.013691873 -0.06842791
-0.05853145 -0.025721224 0.021942079 0.045831554 0.09126471 0.005488003 0.14170769 -0.053603623
0.11014934 -0.15214916 0.13524975 -0.15172726 -0.017739316 0.084709175 -0.11638282 0.017948966
0.08720194 0.0445358 -0.08210247 -0.07514965 0.013399209 -0.07814613 0.20926507 -0.09941449
0.20425719 -0.07952059 -0.13020778 0.039469447 -0.2034796 0.0796835 0.021994282 -0.06298788
0.068529926 -0.024717022 0.09671665 0.023687093 -0.02609083 0.012609046 -0.108259104 -0.09402778
0.06753009 0.11734148 -0.19948772 0.13687043 -0.057995927 -0.12143754 0.1181596 -0.118250534
-0.16944326 -0.12723868 0.088261336 0.0526195 0.22111884 -0.14968094 -0.16646588 -0.07875022
0.017500576 0.19481036 -0.12662631 -0.12333736 0.19877034 0.10297038 -0.1584216 0.019310676
0.030523436 -0.072839536 -0.18875858 0.20299159 0.0048213117 0.059870787 0.22920053 0.08228608
0.058029648 0.10196834 0.14102568 0.16226588 -0.10242136 -0.1334201 0.0046019433 0.076353855
-0.1471063 0.1392997 -0.0889592 -0.14341512 0.13581957 0.009083298 0.027629726 0.057292566
0.069451645 -0.05083953 0.07101621 -0.05814047 0.075444005 0.13990076 -0.12051069 0.17115776
-0.18012115 0.18591869 0.081418574 0.20975362 0.09915854 -0.1562034 0.07435741 0.23791024
-0.14426467 0.05192061 -0.02039828 -0.12936279 0.15150593 -0.1696121 -0.057683166 0.009818094
-0.1732279 0.071417 -0.0726355 0.04650223 0.026154833 -0.048123162 0.11746358 -0.10728219
0.061937544 -0.01584581 -0.09003265 -0.028632462 -0.10427976 0.21407051 -0.13929835 0.22826636
0.15124035 0.15405153 0.030411536 -0.10049716 0.102388166 0.10804357 -0.18395124 0.19283792
0.09554324 0.060661554 -0.024364341 -0.1494498 0.20368403 0.20357831 0.06713595 0.07226361
-0.06508622 -0.014853889 0.10868266 -0.1623956 -0.07296659 0.051206917 -0.056721564 0.20495665
-0.0691466 -0.08965025 0.10437097 -0.10488123 -0.13726594 0.1302884 -0.05270627 0.03181543
0.13867675 -0.033341553 0.07744823 0.08421464 0.13268442 0.07809768 0.1413666 0.09645727
-0.018683419 0.05117666 0.20200564 -0.17390127 0.014164288 0.09355372 -0.11454887 0.07625765
-0.03198577 -0.15484972 0.07986125 -0.12933618 -0.0052951034 -0.07915711 0.11216712 0.06058902
-0.10091995 0.1926291 0.06773258 -0.11198259 -0.06851932 -0.13182095 0.08476595 0.12740886
-0.013282774 0.15514366 0.09018278 0.22480191 -0.2225785 0.18406074 0.14431435 0.048654802
-0.043897923 -0.10231631 -0.19954559 0.07044249 -0.084573634 -0.11428544 -0.13807003 0.025387285
00000000: 5caf 4d3e 7af3 69be 3f0a f6bd 5dbb 44be
00000010: 2d9f 0cbe 786a 56be 03b2 80bd d489 d1bd
00000020: 820f bcbd 1e25 7bbd 603e 203d 3abc 403e
00000030: 3415 d13c 0ced 533d 2dbf 033e e612 69be
00000040: 5948 483e 6012 3b3c f407 a53d 0a8c 3abe
00000050: 78ea 6e3d b59e 3dbe 3dc4 df3d 658d 6cbd
00000060: 40ad f3bd e3d2 df3d 24dd 44be 2323 0bbe
00000070: 20b6 243e 5038 97bd ff58 39bb 5419 0e3d
00000080: fd0c 11bd d92f 123d 2d6c 043e db28 f2bd
00000090: e3ac 503e 87ae 243d 4289 0dbe da71 443b
000000a0: bcdc 3c3e 56f3 bc3d d693 b33d 03f5 4dbe
000000b0: 2523 343e 66e4 0fbe e153 60bc ef23 8cbd
000000c0: acbe 6fbd 51b5 d2bc e0bf b33c deb9 3b3d
000000d0: fee8 ba3d b5d4 b33b d21b 113e 798f 5bbd
000000e0: fa95 e13d fdcc 1bbe e97e 0a3e 645e 1bbe
000000f0: 0b52 91bc 017c ad3d 1e5a eebd b609 933c
00000100: ee96 b23d 2c6b 363d 5725 a8bd 0fe8 99bd
00000110: 5b88 5b3c 140b a0bd 9549 563e d399 cbbd
00000120: cc28 513e b1db a2bd 3055 05be b7aa 213d
00000130: f55c 50be 1a31 a33d 5a2d b43c caff 80bd
00000140: 6b59 8c3d 5a7b cabc 6113 c63d 6f0b c23c
00000150: 70bc d5bc 2c96 4e3c f3b6 ddbd a391 c0bd
00000160: 374d 8a3d bb50 f03d 8246 4cbe c327 0c3e
00000170: 238d 6dbd 3fb4 f8bd a9fd f13d 562d f2bd
00000180: 8982 2dbe db4a 02be 5cc2 b43d 8b87 573d
00000190: fa6c 623e f645 19be 0876 2abe cc47 a1bd
000001a0: 5e5d 8f3c 5e7c 473e 54aa 01be 4c98 fcbd
000001b0: 748a 4b3e 22e2 d23d 4639 22be 6c31 9e3c
000001c0: 490c fa3c e52c 95bd ee49 41be 07dd 4f3e
000001d0: 18fc 9d3b 123b 753d 8bb3 6a3e 9b85 a83d
000001e0: 7fb0 6d3d c7d4 d03d 0969 103e 0729 263e
000001f0: 4ac2 d1bd 479f 08be e6cb 963b 695f 9c3d
00000200: 09a3 16be 95a4 0e3e 3e30 b6bd 6adb 12be
00000210: 4914 0b3e 1dd2 143c bc57 e23c 9cab 6a3d
00000220: aa3c 8e3d 1c3d 50bd f270 913d b424 6ebd
00000230: 6382 9a3d 2542 0f3e 4fce f6bd fb43 2f3e
00000240: ae71 38be 7861 3e3e c8be a63d a7c9 563e
00000250: a213 cb3d c9f3 1fbe b348 983d be9e 733e
00000260: 1eba 13be b5aa 543d 4b1a a7bc ae77 04be
00000270: 5f24 1b3e cbae 2dbe 2f45 6cbd 12dc 203c
00000280: a862 31be 1343 923d ecc1 94bd 1f79 3e3d
00000290: a942 d63c cb1c 45bd bf90 f03d c4b6 dbbd
000002a0: 39b2 7d3d 12cf 81bc 0a63 b8bd a08e eabc
000002b0: a090 d5bd 4d35 5b3e 3aa4 0ebe a8be 693e
000002c0: c0de 1a3e afbf 1d3e 9d21 f93c 74d1 cdbd
000002d0: e3b0 d13d f245 dd3d b75d 3cbe 4e77 453e
000002e0: 2dac c33d 4078 783d ba97 c7bc 5e09 19be
000002f0: 8c92 503e d576 503e 937e 893d f2fe 933d
00000300: ed4b 85bd ba5d 73bc 0495 de3d 084b 26be
00000310: 826f 95bd 58be 513d df54 68bd 28e0 513e
00000320: bc9c 8dbd 8d9a b7bd 72c0 d53d f8cb d6bd
00000330: 718f 0cbe 536a 053e 88e2 57bd e550 023d
00000340: 4701 0e3e 2791 08bd 2d9d 9e3d ba78 ac3d
00000350: 6dde 073e adf1 9f3d 68c2 103e 648b c53d
00000360: f80d 99bc 9e9e 513d 91da 4e3e 2d13 32be
00000370: 5411 683c 1899 bf3d 9998 eabd f92c 9c3d
00000380: 8303 03bd ed90 1ebe 4c8e a33d b470 04be
00000390: 8c82 adbb 1f1d a2bd e0b7 e53d 312c 783d
000003a0: 1eaf cebd 9040 453e 61b7 8a3d 2157 e5bd
000003b0: db53 8cbd 12fc 06be c599 ad3d 7877 023e
000003c0: fe9f 59bc fbdd 1e3e c0b1 b83d 7932 663e
000003d0: 9eeb 63be 6b7a 3c3e 24c7 133e 424a 473d
000003e0: 4fce 33bd 378b d1bd ae55 4cbe 2744 903d
000003f0: f134 adbd 7c0e eabd 3b62 0dbe fff8 cf3c

backbone_network.0.bias f4 [64]
-0.014447026 0.11111917 0.18476251 0.18129781 0.16630699 -0.03191908 -0.1298625 -0.030374357
-0.02528005 0.0923466 -0.15003346 0.006801624 0.21111564 0.011180707 -0.21148315 -0.013285562
0.007174964 -0.2004465 0.17200626 0.15175804 0.089951046 0.115155004 -0.18045875 0.20397058
-0.14277261 0.0068836743 0.19281884 -0.21420918 -0.010610241 0.06596043 0.14801037 -0.1726916
0.14273861 0.18917446 0.18843873 -0.0512397 -0.15207604 0.1932267 -0.070179366 0.18389858
0.056137547 0.11969409 -0.08609506 -0.019015526 -0.10219562 0.194298 0.09632093 -0.16716115
0.24053812 -0.043384414 0.05254071 0.21785225 -0.14414445 -0.14004906 0.08967094 -0.2311587
0.18016212 -0.17593493 -0.05370718 0.07661046 0.0795996 -0.090798244 0.019114872 0.06991842
00000000: 38b3 6cbc 7392 e33d 6232 3d3e 22a6 393e
00000010: 614c 2a3e 95bd 02bd adfa 04be a5d3 f8bc
00000020: 1b18 cfbc 3720 bd3d 5fa2 19be 28e0 de3b
00000030: b32e 583e 492f 373c 0a8f 58be b0ab 59bc
00000040: f61b eb3b d941 4dbe 6922 303e 7666 1b3e
00000050: 4138 b83d 63d6 eb3d 2eca 38be aadd 503e
00000060: fc32 12be 7290 e13b 4d72 453e a759 5bbe
00000070: 94d6 2dbc 4316 873d 0890 173e 11d6 30be
00000080: 122a 123e f3b6 413e 15f6 403e b8e0 51bd
00000090: d2b9 1bbe 38dd 453e 33ba 8fbd e94f 3c3e
000000a0: 7cf0 653d 2d22 f53d 9b52 b0bd 73c6 9bbc
000000b0: f04b d1bd 0ef6 463e e843 c53d 4b2c 2bbe
000000c0: a04f 763e dbb3 31bd ed34 573d a914 5f3e
000000d0: 9a9a 13be 0569 0fbe 66a5 b73d deb4 6cbe
000000e0: 6b7c 383e 4928 34be 0ffc 5bbd f2e5 9c3d
000000f0: 1d05 a33d 6ef4 b9bd cb96 9c3c 6331 8f3d

backbone_network.2.weight f4 [3, 64]
-0.07847566 -0.036326554 0.052073095 -0.08925316 -0.032905944 -0.034119736 0.112229206 0.08296943
-0.105886675 -0.06728073 0.049842354 0.061312217 -0.049906194 0.11563514 0.035921525 0.0068016597
-0.07389312 0.078658015 0.12570837 -0.052963436 -0.013278554 -0.0048383395 -0.09423708 -0.0806078
-0.0073068826 -0.0025735092 -0.12258709 0.110257536 -0.034169838 -0.0045780963 0.08681834 -0.08356147
0.08936036 -0.016072834 0.069984615 0.11545948 -0.07686717 -0.016439542 -0.050134063 0.11135109
-0.11741605 0.027927246 -0.03636211 0.07103806 0.0361978 -0.025824254 0.08167547 0.05218757
-0.058958855 -0.08903128 -0.1052207 -0.08862475 0.09076685 -0.07319955 0.04917727 0.08775603
-0.07446478 -0.112810954 0.02588333 0.01843225 -0.029712163 -0.009676003 -0.06949814 0.098427154
0.08344742 0.11229721 0.08953571 -0.034970958 0.11354777 0.018912744 0.09481719 -0.083245836
0.105329566 0.023464097 0.07961588 0.06772137 -0.01214916 -0.056373484 0.010154222 -0.13704282
-0.05526879 0.057493806 0.082333624 -0.11963685 0.04951834 -0.09945247 -0.009101835 -0.0019572352
0.041160244 -0.11964826 -0.08469661 0.051466275 0.0010033817 -0.097280964 0.019812087 0.10438362
-0.028951272 -0.08081333 -0.05139874 -0.046090025 0.079801396 -0.0017096854 0.05002211 0.03141702
-0.018266127 -0.08369752 0.07622698 -0.039668217 -0.07702907 0.07690399 0.10821014 0.10663197
-0.06657918 0.006423659 -0.11084974 0.0084458515 -0.082165666 0.019830957 0.0055629625 0.05205295
0.09136381 0.05956763 -0.059952095 0.10661982 0.08700623 -0.046223287 -0.048494037 -0.007487199
-0.05494067 0.060074713 -0.0703463 0.11423519 0.03597402 -0.041652802 -0.08160402 -0.08590013
-0.05003645 -0.09293905 -0.09049626 -0.0012442613 0.080465235 -0.09263277 -0.016132966 0.05147048
0.045779493 -0.09739597 0.029671695 -0.08765045 0.020997318 0.05129708 0.123934 -0.080221675
-0.053788457 -0.0032400044 0.019729806 0.047806986 0.07249946 0.012227595 -0.02498388 0.060921684
-0.043618213 -0.014283844 -0.09086414 0.09742236 0.07257564 -0.011765737 -0.037088405 -0.032030728
0.04023869 0.025929997 0.09381465 0.055844672 0.04723139 -0.10205646 -0.06448865 -0.094763786
0.11730789 0.0087983925 -0.06556705 0.05501682 -0.015745131 -0.09275175 0.103325516 0.027647028
0.0077160858 -0.06535075 -0.027388213 0.10494257 0.1183305 0.06993465 0.0827078 0.08300726
00000000: d9b7 a0bd 27cb 14bd 994a 553d 5cca b6bd
00000010: 62c8 06bd 23c1 0bbd 6dd8 e53d e0eb a93d
00000020: 1ddb d8bd 7bca 89bd 7f27 4c3d 8522 7b3d
00000030: 706a 4cbd 1ed2 ec3d 7322 133d 75e0 de3b
00000040: 4755 97bd 7417 a13d b2b9 003e 30f0 58bd
00000050: 4b8e 59bc ef8a 9ebb 5fff c0bd b415 a5bd
00000060: 936e efbb 52a8 28bb f10e fbbd b4ce e13d
00000070: acf5 0bbd db03 96bb d0cd b13d 4722 abbd
00000080: 9002 b73d 2dab 83bc 1854 8f3d 0576 ec3d
00000090: 896c 9dbd 38ac 86bc 6059 4dbd 0a0c e43d
000000a0: d377 f0bd aec7 e43c 70f0 14bd 677c 913d
000000b0: 2544 143d 638d d3bc 7845 a73d a2c2 553d
000000c0: d77e 71bd 0856 b6bd f37d d7bd e580 b5bd
000000d0: f8e3 b93d a5e9 95bd 1b6e 493d 6fb9 b33d
000000e0: fe80 98bd 6e09 e7bd 4709 d43c 3bff 963c
000000f0: ec66 f3bc 1988 1ebc 0a55 8ebd 2d94 c93d
00000100: 7be6 aa3d 14fc e53d 805e b73d b53d 0fbd
00000110: bc8b e83d e6ee 9a3c 842f c23d cb7c aabd
00000120: 07b7 d73d c737 c03c a70d a33d 80b1 8a3d
00000130: 450d 47bc e2e7 66bd e55d 263c f454 0cbe
00000140: 8761 62bd a07e 6b3d 889e a83d 2a04 f5bd
00000150: bed3 4a3d bdad cbbd dd1f 15bc f544 00bb
00000160: a597 283d 260a f5bd 6b75 adbd 4dce 523d
00000170: e783 833a 3e3b c7bd f54c a23c 14c7 d53d
00000180: 382b edbc 7681 a5bd 7c87 52bd e5c8 3cbd
00000190: ea6e a33d 8617 e0ba fce3 4c3d 22af 003d
000001a0: d8a2 95bc 9b69 abbd e41c 9c3d 247b 22bd
000001b0: 6bc1 9dbd d77f 9d3d 479d dd3d dd61 da3d
000001c0: aa5a 88bd 8f7d d23b 3005 e3bd 7860 0a3c
000001d0: 7946 a8bd 8874 a23c 8349 b63b 7935 553d
000001e0: f31c bb3d 30fd 733d 5490 75bd 7e5b da3d
000001f0: 5330 b23d a154 3dbd afa1 46bd 2d57 f5bb
00000200: 7809 61bd e710 763d b911 90bd 24f4 e93d
00000210: 7e59 133d 219c 2abd 0220 a7bd 68ec afbd
00000220: 05f3 4cbd d456 bebd 1a56 b9bd 7b16 a3ba
00000230: f5ca a43d 40b6 bdbd 4829 84bc b6d2 523d
00000240: 4783 3b3d 8a77 c7bd 0e12 f33c 1482 b3bd
00000250: 9102 ac3c e31c 523d 1cd1 fd3d 434b a4bd
00000260: 4951 5cbd 4156 54bb 67a0 a13c 42d1 433d
00000270: 997a 943d 4056 483c feaa ccbc 0489 793d
00000280: 03a9 32bd c906 6abc fa16 babd 6085 c73d
00000290: 8aa2 943d 14c5 40bc 03ea 17bd a732 03bd
000002a0: 53d1 243d 256b d43c e521 c03d 62bd 643d
000002b0: b475 413d fa02 d1bd a012 84bd 8413 c2bd
000002c0: 1e3f f03d 2227 103c 0448 86bd 5159 613d
000002d0: effb 80bc a1f4 bdbd 549c d33d 057c e23c
000002e0: 38d7 fc3b 9dd6 85bd 3f5d e0bc 21ec d63d
000002f0: 4357 f23d e639 8f3d b562 a93d b6ff a93d

backbone_network.2.bias f4 [3]
0.067660436 -0.0772941 -0.09191546
00000000: 8e91 8a3d 5e4c 9ebd 2c3e bcbd
